bc_model.pth (torch, 500769 bytes, 6 tensors)

0.weight f4 [256, 202]
0.040328514 0.09020651 0.23674245 0.033805713 -0.015416075 0.029799735 -0.038892448 0.030787889
0.062025145 -0.051617894 0.0767733 0.0068143085 0.05198241 0.00952886 0.033926636 -0.009934165
0.054239333 0.010399796 -0.03284674 0.017934583 -0.032417316 -0.008251287 -0.028577197 0.046674617
-0.05553989 0.2676172 -0.14591351 0.054167755 0.0066407695 -0.069492854 0.06121921 -0.056450162
0.054319657 0.011709213 -0.022846129 0.046797022 0.010965623 0.05684811 0.0076917037 -0.02218958
0.018904515 -0.019080117 0.029611431 0.06281875 0.040672123 -0.03075935 0.0406162 0.012589209
0.035731144 -0.042884625 -0.06964971 -0.02718423 -0.053967535 0.05773291 0.02026581 0.022604331
0.02225206 -0.0012239739 0.055064127 -0.04999156 0.004430115 -0.048023358 0.02169557 -0.024230652
0.021559373 -0.014658853 0.05835581 -0.04170236 -0.041962415 -0.04196495 0.063284576 0.023447469
0.067703724 -0.058066234 -0.06978816 -0.05504692 -0.047330238 0.028498523 0.02519413 0.058463633
-0.042850286 -0.047965072 0.037331343 -0.028439727 0.04270301 -0.016696412 0.040249012 -0.054667275
-0.03550703 0.021451034 0.014874585 -0.017938834 0.041939296 0.047831208 -0.051023018 -0.037562832
0.06442575 -0.023741666 -0.024943683 -0.06807972 0.16545577 0.110504195 0.017643327 -0.051073156
0.0016504079 -0.058406238 -0.07022648 -0.038744487 -0.061579704 -0.044800732 0.060101192 0.013289198
0.021682039 -0.06562343 -0.04621044 -0.023419652 0.011002235 -0.061911047 -0.030316118 -0.04212217
0.0001949817 -0.02618109 -0.00487563 -0.04767786 -0.048294593 0.09449932 0.111462966 0.080012396
0.05899453 -0.013963882 0.06385543 0.025241174 -0.059580427 0.04869142 -0.01935912 -0.023652444
-0.055085327 -0.0699489 0.020130672 -0.015369657 0.027392678 -0.057741676 0.05223713 -0.05164784
-0.012149252 0.014696017 0.036323346 0.056802154 0.06409487 -0.055789806 0.090252206 0.042281374
0.064834505 -0.05266358 0.06408779 -0.048322335 0.040922098 0.024727203 0.02286382 -0.038039733
0.067271784 0.01877996 0.0090510845 -0.062004868 0.02953621 -0.010555413 -0.03223351 0.060435265
0.015686624 -0.038928393 -0.03561181 -0.0033600777 0.03928616 -0.017979294 -0.04014551 0.020851476
-0.032849666 0.28724337 0.023633497 -0.066239506 0.031943057 0.031709768 0.0022236202 -0.025056843
0.036723718 0.05259212 0.019955155 -0.012363713 -0.01863135 0.00752715 -0.012429338 -0.020967279
0.04497444 0.06046714 -0.0069654286 -0.015753329 0.0010267124 -0.0042010546 0.016915277 0.019717164
0.018709391 0.056733552 0.13211095 0.1985398 0.4850106 -0.08810564 -0.043046452 -0.06804477
-0.028241668 0.018594898 0.044862904 0.03248491 -0.067249544 -0.04757584 -0.011103939 0.06806247
0.010178067 -0.018221118 0.029108904 -0.026798733 -0.04554075 0.051354684 -0.031992704 -0.014104791
-0.06999418 0.04708972 0.053306982 -0.15265067 0.20280424 0.33698836 -0.05714471 0.052467287
0.028651787 0.054018136 0.036859356 0.017807499 -0.00068900734 -0.058698934 -0.06028228 -0.0658109
0.028802603 -0.034544386 -0.014160082 -0.040492408 -0.012821205 -0.049521647 -0.045974165 0.023339093
-0.020910665 0.04343611 -0.022572026 -0.051613607 -0.012414198 -0.03410671 -0.021525975 -0.06698217
00000000: 832f 253d 31be b83d 9d6c 723e dc77 0a3d
00000010: b493 7cbc 931e f43c b04d 1fbd e236 fc3c
00000020: 140e 7e3d 496d 53bd 523b 9d3d 904a df3b
00000030: 82eb 543d f01e 1c3c a8f6 0a3d e8c2 22bc
00000040: 102a 5e3d e863 2a3c 4e8a 06bd 8ceb 923c
00000050: 05c8 04bd 6830 07bc ba1a eabc e22d 3f3d
00000060: cc7d 63bd 1f05 893e 5a6a 15be 02df 5d3d
00000070: d09a d93b 4552 8ebd ffc0 7a3d 4938 67bd
00000080: 4a7e 5e3d 00d8 3f3c ce27 bbbc 3cae 3f3d
00000090: 28a9 333c 90d9 683d b00a fc3b ecc6 b5bc
000000a0: a4dd 9a3c e84d 9cbc ac93 f23c 1ea7 803d
000000b0: d097 263d 08fb fbbc 2c5d 263d f842 4e3c
000000c0: d25a 123d caa7 2fbd 82a4 8ebd 76b1 debc
000000d0: 100d 5dbd 5879 6c3d 7c04 a63c b82c b93c
000000e0: f449 b63c c06d a0ba ec8a 613d f3c3 4cbd
000000f0: 802a 913b 24b4 44bd e8ba b13c 5c7f c6bc
00000100: 489d b03c b02b 70bc 8006 6f3d 18d0 2abd
00000110: c8e0 2bbd 70e3 2bbd 589b 813d e814 c03c
00000120: 40a8 8a3d dcd6 6dbd 18ed 8ebd e178 61bd
00000130: 5add 41bd bc75 e93c ec63 ce3c 9077 6f3d
00000140: c883 2fbd 0677 44bd c0e8 183d 6efa e8bc
00000150: 5ae9 2e3d eac6 88bc 26dc 243d cbea 5fbd
00000160: d26f 11bd 14ba af3c 88b4 733c 76f4 92bc
00000170: 8ac8 2b3d a8ea 433d 83fd 50bd 7cdb 19bd
00000180: a6f1 833d e27d c2bc b256 ccbc 616d 8bbd
00000190: 3d6d 293e 0650 e23d bd88 903c 1632 51bd
000001a0: 8052 d83a 613b 6fbd e7d2 8fbd 8ab2 1ebd
000001b0: 003b 7cbd f980 37bd ab2c 763d f0ba 593c
000001c0: 889e b13c 9465 86bd 2947 3dbd 92da bfbc
000001d0: b842 343c 7096 7dbd 8259 f8bc 4c88 2cbd
000001e0: 0074 4c39 ba79 d6bc c0c3 9fbb dc49 43bd
000001f0: 8dd0 45bd dc88 c13d b246 e43d 8add a33d
00000200: 40a4 713d c4c8 64bc a3c6 823d 94c6 ce3c
00000210: 9b0a 74bd a870 473d 0497 9ebc c5c2 c1bc
00000220: 27a1 61bd 5e41 8fbd 14e9 a43c 04d1 7bbc
00000230: 9c66 e03c 8982 6cbd 9af6 553d af8c 53bd
00000240: a80d 47bc 90c7 703c cac7 143d 60a9 683d
00000250: 2c44 833d da83 64bd 26d6 b83d 3c2f 2d3d
00000260: f4c7 843d c4b5 57bd 7640 833d a4ed 45bd
00000270: ee9d 273d b490 ca3c e84c bb3c 8dcf 1bbd
00000280: cac5 893d 6ed8 993c 004b 143c d1f8 7dbd
00000290: ecf5 f13c 9cf0 2cbc 4907 04bd f88a 773d
000002a0: 3c81 803c 6173 1fbd b0dd 11bd c034 5cbb
000002b0: 86ea 203d 5049 93bc 9e6f 24bd b7d0 aa3c
000002c0: 5f8d 06bd 9011 933e 099b c13c 94a8 87bd
000002d0: b9d6 023d 1ae2 013d 28ba 113b 0244 cdbc
000002e0: 9c6b 163d d66a 573d fe78 a33c 2c91 4abc
000002f0: c6a0 98bc 50a6 f63b 6ca4 4bbc 92c3 abbc
00000300: 1e37 383d 64ac 773d 403e e4bb 200d 81bc
00000310: c092 863a 00a9 89bb e891 8a3c e485 a13c
00000320: 7044 993c 7161 683d 1848 073e 044e 4b3e
00000330: 4f53 f83e bb70 b4bd 7a51 30bd 0e5b 8bbd
00000340: 125b e7bc 5454 983c 2ac2 373d e60e 053d
00000350: 21ba 89bd e2de 42bd 4ced 35bc 5664 8b3d
00000360: e8c1 263c 7444 95bc cc75 ee3c 0489 dbbc
00000370: f088 3abd 4a59 523d c80a 03bd c817 67bc
00000380: 1c59 8fbd 26e1 403d 6c58 5a3d 7550 1cbe
00000390: eaab 4f3e bd89 ac3e 9210 6abd f0e7 563d
000003a0: 27b7 ea3c 1f42 5d3d d6f9 163d 08e1 913c
000003b0: 809e 34ba 4b6e 70bd 8dea 76bd ddc7 86bd
000003c0: 70f3 eb3c 6a7e 0dbd b0ff 67bc 5edb 25bd
000003d0: 0810 52bc 36d7 4abd 684f 3cbd a031 bf3c
000003e0: d84c abbc 10ea 313d f8e8 b8bc ca68 53bd
000003f0: ec64 4bbc 7ab3 0bbd 3e57 b0bc f32d 89bd

0.bias f4 [256]
0.19616252 0.30768448 0.05522306 0.16681916 -0.05286715 -0.06094831 0.2014148 0.1307563
0.21617948 -0.042481765 -0.23105355 0.1569262 -0.089770555 -0.0010290297 0.2529394 0.40084448
0.0034504968 0.023593528 -0.06972815 -0.41960683 -0.19414963 -0.037915666 -0.013005238 0.21743795
-0.02789964 -0.22859442 0.05451397 0.2034702 -0.011391495 0.1842904 0.21655837 0.24604164
0.16594347 -0.059100825 -0.057500195 -0.2727592 -0.17217053 0.09433498 -0.2388168 0.0690567
0.13590957 0.031989824 -0.18854775 0.26233253 0.17896573 0.13219184 0.05665263 0.104422234
-0.0073202117 0.29282746 0.29430062 -0.11120896 -0.22504587 0.024468282 0.16731837 0.07520622
0.064319424 0.27617243 0.31052727 0.22875085 0.2853484 0.22157685 -0.11254569 0.043049756
0.2623248 0.18078831 0.04709939 -0.0122631835 0.11296874 0.28840986 -0.15082759 -0.04224762
0.0686702 -0.01522494 -0.012950906 0.03348017 -0.3408485 -0.04247451 0.16988412 0.13310812
0.048489917 0.06578323 -0.26190412 0.09410645 -0.14114814 0.13322432 0.10515674 0.15722093
0.21406695 -0.28470907 -0.008694477 0.0445671 -0.29293814 0.17431366 0.15207596 -0.278467
0.18206798 -0.050393097 0.011905803 0.040631752 0.20062818 -0.07228274 -0.27963448 0.148799
0.21423724 0.074657016 0.22556116 -0.049557667 -0.40216675 -0.04164574 0.072269715 0.31435296
0.099653274 -0.00062346796 0.106719665 -0.14024152 0.33989426 0.23019359 0.07751774 0.21891937
0.11524308 -0.04573638 0.29040202 -0.01853694 0.16943495 0.09180695 0.16270334 0.15425557
0.29256302 0.15378039 0.2051435 0.094639815 0.23668279 0.20897792 0.17890257 0.28796566
-0.11421437 -0.2965315 0.078896835 0.28299847 0.06799732 -0.055486962 -0.13892438 0.12099131
-0.3175473 -0.015754357 0.050531298 -0.1448578 0.0795808 0.16175365 -0.04311181 -0.18750325
0.1777866 0.08370436 0.12181173 -0.29980457 -0.20238149 -0.034896594 -0.24867482 0.27636653
0.3043115 -0.053892702 0.13179858 0.23443487 -0.37504736 -0.07692301 0.082524434 -0.055934913
-0.16898233 0.32640994 0.1281419 -0.090613134 -0.044761185 0.21803837 -0.019003792 0.05512144
0.184078 0.05893108 0.055112995 0.13869011 -0.03191564 -0.23216127 0.21823089 0.18160346
0.23301886 -0.19715174 0.24081627 -0.21844032 0.056571897 -0.013486639 0.20280023 -0.036945008
0.11607664 -0.049649574 0.060144283 0.14613107 -0.02690501 0.09539756 0.16718411 0.045965664
0.08700656 -0.23235731 -0.09619554 0.015197725 0.034833997 0.08542532 0.26135162 -0.03254327
-0.05547344 0.09675035 0.19730946 -0.41324383 0.034862667 0.03321216 -0.104609355 0.20049655
0.33479506 0.048852365 -0.007354505 0.108750276 0.19689083 0.04794633 0.100204125 0.20800167
0.23471501 -0.03736789 0.14419514 0.06404261 -0.004699491 0.19216819 -0.24888599 0.25086427
0.20752998 0.06569947 0.10884879 -0.18478502 -0.23750779 0.19471452 0.30696118 0.27281365
0.2595071 -0.023134777 0.10327928 -0.0166692 -0.036968827 0.16589409 0.229354 -0.29435
0.09941324 0.2612786 0.21985175 -0.22902088 0.14930269 0.043444756 0.1708462 -0.16914837
00000000: d4de 483e d288 9d3e 9331 623d a4d2 2a3e
00000010: 3a8b 58bd efa4 79bd ae3f 4e3e fbe4 053e
00000020: 275e 5d3e 5c01 2ebd 4d99 6cbe 43b1 203e
00000030: a0d9 b7bd 82e0 86ba 4681 813e 7d3b cd3e
00000040: bb21 623b 3747 c13c a2cd 8ebd b5d6 d6be
00000050: 29cf 46be 754d 1bbd ec13 55bc 0ea8 5e3e
00000060: c98d e4bc a814 6abe 0a4a 5f3d 7e5a 503e
00000070: 65a3 3abc 9fb6 3c3e 7ac1 5d3e 57f2 7b3e
00000080: 16ed 293e b513 72bd 5385 6bbd 18a7 8bbe
00000090: 794d 30be b332 c13d 648c 74be 996d 8d3d
000000a0: e12b 0b3e c307 033d a912 41be 7350 863e
000000b0: cb42 373e 4c5d 073e 970c 683d 53db d53d
000000c0: 63de efbb 7bed 953e 92ae 963e 86c1 e3bd
000000d0: 6d72 66be b571 c83c 8255 2b3e b805 9a3d
000000e0: e7b9 833d 7966 8d3e 6efd 9e3e aa3d 6a3e
000000f0: 2f19 923e 0be5 623e 5b7e e6bd f154 303d
00000100: 704f 863e 9220 393e 4aeb 403d 85eb 48bc
00000110: 285c e73d 75aa 933e 8c72 1abe d70b 2dbd
00000120: f6a2 8c3d 0772 79bc 0930 54bc 8122 093d
00000130: b283 aebe c0f9 2dbd 1af6 2d3e 7f4d 083e
00000140: 5d9d 463d 5cb9 863d 4c18 86be e2ba c03d
00000150: 2389 10be f56b 083e 6b5c d73d 86fe 203e
00000160: 5e34 5b3e 63c5 91be 4873 0ebc fe8b 363d
00000170: fdfb 95be 487f 323e cdb9 1b3e 3a93 8ebe
00000180: 0770 3a3e fe68 4ebd 8f10 433c 7b6d 263d
00000190: 7971 4d3e f908 94bd 402c 8fbe c45e 183e
000001a0: 0261 5b3e c7e5 983d 81f9 663e fbfc 4abd
000001b0: cde8 cdbe b994 2abd 2502 943d dff2 a03e
000001c0: 0417 cc3d 3a70 23ba d78f da3d 799b 0fbe
000001d0: 9f06 ae3e deb7 6b3e 9fc1 9e3d 662c 603e
000001e0: 9004 ec3d 1256 3bbd 93af 943e c8da 97bc
000001f0: 5b80 2d3e 4805 bc3d b49b 263e 2cf5 1d3e
00000200: d2ca 953e 9b78 1d3e 2311 523e 85d2 c13d
00000210: f95c 723e 4ffe 553e 3c32 373e 3c70 933e
00000220: 39e9 e9bd fad2 97be aa94 a13d 2de5 903e
00000230: 2e42 8b3d 4c46 63bd 3142 0ebe 4bca f73d
00000240: 8f95 a2be 480f 81bc e8f9 4e3d 9a55 14be
00000250: 42fb a23d c0a2 253e 0296 30bd da00 40be
00000260: b10d 363e 316d ab3d 6e78 f93d fc7f 99be
00000270: 183d 4fbe bbef 0ebd 9da4 7ebe ea7f 8d3e
00000280: b8ce 9b3e 98be 5cbd 35f6 063e b20f 703e
00000290: 3506 c0be d089 9dbd 9202 a93d 021c 65bd
000002a0: b409 2dbe 341f a73e a137 033e 6193 b9bd
000002b0: 8157 37bd 7345 5f3e d7ad 9bbc 05c7 613d
000002c0: f17e 3c3e b761 713d 2abe 613d c804 0e3e
000002d0: f9b9 02bd afbb 6dbe eb77 5f3e 42f6 393e
000002e0: 7f9c 6e3e 25e2 49be 8a98 763e d2ae 5fbe
000002f0: efb7 673d 10f7 5cbc ddaa 4f3e a653 17bd
00000300: 97b9 ed3d 5a5d 4bbd da59 763d 62a3 153e
00000310: e567 dcbc cc5f c33d 5032 2b3e 7e46 3c3d
00000320: 7f30 b23d 13ef 6dbe 2b02 c5bd e1ff 783c
00000330: 18ae 0e3d 78f3 ae3d e1cf 853e 184c 05bd
00000340: 1e38 63bd 0c25 c63d 7e0b 4a3e b294 d3be
00000350: 28cc 0e3d 7909 083d 6e3d d6bd f84e 4d3e
00000360: 426a ab3e 6b19 483d 0ffe f0bb 77b8 de3d
00000370: c09d 493e 5f63 443d d237 cd3d 64fe 543e
00000380: 2259 703e 130f 19bd e4a7 133e c628 833d
00000390: 30fe 99bb bdc7 443e f8db 7ebe 4871 803e
000003a0: bd82 543e 728d 863d 1dec de3d 4938 3dbe
000003b0: 3e35 73be 3e63 473e 042a 9d3e 3bae 8b3e
000003c0: 1dde 843e 2585 bdbc 1684 d33d d98d 88bc
000003d0: a06c 17bd 24e0 293e c6db 6a3e 0bb5 96be
000003e0: 2b99 cb3d 4fc6 853e d120 613e 7384 6abe
000003f0: cee2 183e 21f3 313d 4ef2 2e3e 3b35 2dbe

2.weight f4 [256, 256]
0.008156788 -0.0044741067 -0.027131822 -0.034524985 0.04257843 0.038647987 0.030449118 -0.014728242
-0.061223216 -0.019861028 -0.058307923 -0.016616384 0.053735226 0.004948317 0.06979229 -0.020557852
-0.02339192 -0.04926708 0.06078466 -0.048895374 -0.031956613 -0.03529132 0.02434921 0.37735108
0.031012295 0.0038438158 0.0558282 0.03183963 -0.042491615 0.19325875 0.048032355 -0.04031607
-0.027214775 -0.011816829 -0.061888013 0.042208053 0.03622712 0.11530852 -0.033739913 0.051635124
-0.041057054 -0.038886312 -0.055218168 0.040877312 0.03150477 -0.18643807 -0.045753017 0.010296329
-0.054032937 0.35746738 -0.052239962 0.025478225 0.0067703323 0.046982035 0.019628154 -0.018276311
-0.051570818 -0.032320846 0.05266898 0.0635283 0.35223857 -0.057710808 0.03117453 0.014395996
-0.043964755 0.02298782 -0.027589357 -0.025599264 -0.048477672 0.53281444 -0.03130126 -0.023693252
0.015943015 0.045944158 0.0037369023 0.008502487 0.048249573 -0.0015194807 -0.022016881 -0.053440638
-0.049654376 0.0058432384 0.05315551 -0.006511445 -0.0069709253 0.050603017 -0.11872835 0.047063615
0.32300904 0.055100873 -0.061703615 -0.053605452 0.023484902 1.0978096 -0.028655749 -0.026001448
0.04341693 0.0395051 -0.06841475 0.04686554 0.006126112 -0.043523278 -0.004745267 -0.005264945
0.16310233 -0.0540568 0.2580043 -0.01877451 -0.01702122 0.014000681 0.0013999267 0.01773686
-0.017703293 -0.38187242 0.011146898 0.026721202 0.14930099 -0.034855925 0.014180734 0.16296466
0.041096628 0.00085685565 0.051646557 0.042703476 0.25085187 0.030670173 0.0022010587 0.060260728
0.29009104 0.006465326 0.05231236 0.064614005 -0.06008967 -0.03959721 0.10975107 -0.027257197
0.013149181 -0.018745482 0.010632728 0.43489555 -0.046512697 0.037358113 -0.033414096 0.18611422
-0.051089887 0.023522267 -0.059529927 0.0314163 0.016325662 -0.0026567532 0.011673018 0.024736844
0.047421325 -0.04341314 -0.04274608 -0.014793299 -0.06050386 -0.010272368 -0.039765395 -0.0069252034
0.0012536584 0.049095206 -0.033472348 -0.06365512 0.012944972 0.015255574 -0.055819698 0.015169192
0.057416193 0.078450166 -0.051450793 0.0041087503 0.030485163 0.045111872 -0.033667035 -0.055000514
0.018116606 -0.019269656 -0.009444785 -0.058965698 -0.02936747 -0.023022272 -0.048532717 0.30159706
0.20224166 0.03501383 0.030555425 0.019770483 0.046792384 -0.053301938 0.007320148 -0.014772331
0.05710614 0.052210882 -0.008263096 0.140396 -0.04063688 0.050416917 -0.020215878 -0.14861308
0.052259237 0.0019974653 -0.013731264 -0.009652615 0.059831545 0.051659293 0.014234303 0.027766524
-0.020636896 0.024280826 0.3378311 0.04885384 -0.04568171 -0.037261643 0.020073969 0.056003716
0.7388544 -0.023686882 0.047281664 -0.028515415 -0.048960023 0.023981974 -0.027541809 0.5054477
-0.0072070705 -0.041553948 0.063537955 0.031523667 -0.059399113 -0.008754275 0.037670214 0.2581802
0.010917745 -0.0125125395 -0.034888737 0.040071256 -0.005201995 0.34919715 0.01627217 0.16372113
-0.032516655 -0.003962702 -0.04996671 0.038658652 -0.01600238 0.055583045 -0.0011214527 0.03301341
0.046025362 0.042795703 -0.041440796 -0.04647144 0.009184705 0.14163436 0.13254583 0.058102194
00000000: 0ca4 053c 879b 92bb 8e43 debc 126a 0dbd
00000010: b866 2e3d 5a4d 1e3d 6e70 f93c b94e 71bc
00000020: 32c5 7abd 98b3 a2bc 4ad4 6ebd 151f 88bc
00000030: 7819 5c3d 7e25 a23b 43ef 8e3d f168 a8bc
00000040: 69a0 bfbc 47cc 49bd 56f9 783d 8446 48bd
00000050: f0e4 02bd a28d 10bd ff77 c73c 2934 c13e
00000060: 7f0d fe3c 87e8 7b3b 1cac 643d 466a 023d
00000070: b00b 2ebd 9fe5 453e 93bd 443d 7722 25bd
00000080: 85f1 debc 609b 41bc 497e 7dbd 5ae2 2c3d
00000090: e362 143d e026 ec3d dd32 0abd 5a7f 533d
000000a0: 712b 28bd 4147 1fbd 722c 62bd f86e 273d
000000b0: 250b 013d 9fe9 3ebe 8467 3bbd efb1 283c
000000c0: a451 5dbd f705 b73e 92f9 55bd b6b7 d03c
000000d0: aad9 dd3b 3c70 403d 39cb a03c 34b8 95bc
000000e0: ec3b 53bd dd62 04bd 6ebb 573d 201b 823d
000000f0: 9d58 b43e 2b62 6cbd ba61 ff3c 2fdd 6b3c
00000100: 6314 34bd f450 bc3c 1303 e2bc 8cb5 d1bc
00000110: 8690 46bd 8766 083f c035 00bd 5a18 c2bc
00000120: ed9a 823c f12f 3c3d d1e6 743b 044e 0b3c
00000130: 58a1 453d 5029 c7ba bf5c b4bc 92e4 5abd
00000140: 6362 4bbd a378 bf3b 98b9 593d f65d d5bb
00000150: 5c6c e4bb 1c45 4f3d d927 f3bd c7c5 403d
00000160: 7161 a53e 74b1 613d eebc 7cbd 6491 5bbd
00000170: 6963 c03c 0685 8c3f 76bf eabc fd00 d5bc
00000180: f3d5 313d 1ad0 213d 081d 8cbd 15f6 3f3d
00000190: 8dbd c83b 7745 32bd 2f7e 9bbb 8f85 acbb
000001a0: 4c04 273e aa6a 5dbd 2419 843e 00cd 99bc
000001b0: 1670 8bbc 1d63 653c bf7d b73a e44c 913c
000001c0: 7f06 91bc c884 c3be 7ba1 363c 6ce6 da3c
000001d0: 5ce2 183e 16c5 0ebd 4f56 683c 35e0 263e
000001e0: f054 283d 9c9e 603a 578b 533d d7e9 2e3d
000001f0: a86f 803e 0440 fb3c a33f 103b f4d3 763d
00000200: d086 943e 16db d33b 7c45 563d 5954 843d
00000210: 9620 76bd af30 22bd 2bc5 e03d 7c4a dfbc
00000220: aa6f 573c 2090 99bc e534 2e3c a1aa de3e
00000230: 1984 3ebd d204 193d 38dd 08bd ba94 3e3e
00000240: a143 51bd c5b1 c03c a7d5 73bd 61ae 003d
00000250: 65bd 853c ec1c 2ebb 3040 3f3c eca4 ca3c
00000260: dd3c 423d fad1 31bd 8316 2fbd 985f 72bc
00000270: e5d2 77bd 6f4d 28bc 0ae1 22bd d1ec e2bb
00000280: cc51 a43a 0e18 493d 4d1a 09bd 9e5d 82bd
00000290: 2617 543c 84f2 793c 32a3 64bd 3488 783c
000002a0: 3e2d 6b3d 7baa a03d 11be 52bd b2a2 863b
000002b0: 05bc f93c 3ac7 383d 72e6 09bd 3848 61bd
000002c0: 4769 943c 66db 9dbc 4dbe 1abc 0486 71bd
000002d0: 0c94 f0bc 3499 bcbc 3eca 46bd ee6a 9a3e
000002e0: 7018 4f3e a96a 0f3d 5f4f fa3c b5f5 a13c
000002f0: 5fa9 3f3d 2253 5abd dadd ef3b a607 72bc
00000300: 21e8 693d 14db 553d f061 07bc f8c3 0f3e
00000310: db72 26bd f881 4e3d c59b a5bc 072e 18be
00000320: c80d 563d e8e7 023b 18f9 60bc 0026 1ebc
00000330: ec11 753d b298 533d fe36 693c 9f76 e33c
00000340: b50e a9bc 95e8 c63c 33f8 ac3e f71a 483d
00000350: bf1c 3bbd aa9f 18bd 2a72 a43c 2764 653d
00000360: 9025 3d3f fe0a c2bc 6baa 413d 2999 e9bc
00000370: 4e8a 48bd d875 c43c 5c9f e1bc 0565 013f
00000380: 4a29 ecbb 7934 2abd 3020 823d f61e 013d
00000390: 7c4c 73bd 176e 0fbc 154c 1a3d 3230 843e
000003a0: 57e0 323c 6501 4dbc 7ee7 0ebd c221 243d
000003b0: 7f75 aabb f8c9 b23e 374d 853c 83a6 273e
000003c0: 2f30 05bd 8ed9 81bb e5a9 4cbd 8958 1e3d
000003d0: 6c17 83bc 0cab 633d b5fd 92ba 1239 073d
000003e0: 1785 3c3d 8c4a 2f3d d3bd 29bd d658 3ebd
000003f0: 727b 163c 9908 113e 18ba 073e 91fc 6d3d

2.bias f4 [256]
0.47934744 -0.03876952 -0.016994722 0.12026268 -0.0345281 -0.031304065 -0.0027630066 0.07469095
-0.010158262 0.14567788 0.013017265 0.016830033 0.048637226 0.04577974 0.11943401 -0.4018256
0.15521798 0.15005648 -0.022575587 0.04628029 -0.042610954 -0.031866062 -0.006433798 0.03842026
0.020174501 -0.030151647 0.14842373 -0.067715876 -0.06824651 -0.03177456 0.019010829 0.2303927
0.18583612 0.088387534 -0.05915269 -0.043481205 0.02336481 -0.22490169 0.0334388 -0.059846584
0.029530467 0.08426629 -0.31653363 0.14050014 -0.25461736 0.079104476 -0.010186884 0.11041809
0.073788024 -0.015928335 0.032524716 0.032613505 0.07213251 -0.14166974 0.09868794 0.07216129
-0.012779576 -0.0059305537 0.019816834 -0.28611648 -0.032115955 -0.0452864 0.049110662 -0.063026235
-0.051464405 -0.049931128 -0.044897743 -0.120486125 0.002821923 0.07160196 -0.038719263 0.0027834573
0.057958998 0.09485193 -0.03578537 0.06320187 0.089775085 -0.007868871 0.058130346 0.2265075
0.2285029 -0.31891924 0.033667933 0.07403348 -0.02375916 0.000115416886 0.015447818 -0.05845186
0.307166 0.023708459 0.036867425 0.050990343 -0.08760838 0.024296233 -0.03207502 0.16613403
0.28036457 -0.038267758 0.06388289 0.025841415 -0.16897501 0.1949122 0.0773239 0.066575944
-0.043060828 -0.13707122 -0.0057283784 0.1868512 0.07856759 0.05253928 0.010459674 -0.05027476
-0.0047011226 -0.050434947 0.028109115 -0.04127373 0.06502934 -0.029758211 -0.1001221 -0.040812325
-0.2124455 0.014680096 -0.43709633 -0.16708764 -0.021670103 0.07148964 0.045053974 -0.019494297
0.07937905 -0.022897925 -0.035220597 -0.14042166 0.054010957 0.1621625 0.1610157 -0.039501704
0.07321336 -0.027528275 0.01194135 -0.05931593 -0.035398394 -0.2483308 0.0037137407 -0.047311813
-0.03133113 -0.036172856 -0.017770179 -0.020513242 0.016047753 0.15760295 0.060987823 -0.035324093
-0.0051096366 0.001698818 -0.08371604 -0.03330931 0.097427845 0.2561488 0.05959484 0.08214957
0.05952766 0.10439006 -0.14897169 -0.012854695 -0.010515581 0.052063182 -0.013113919 -0.010598709
-0.12598903 0.0010156184 -0.00018602621 0.0017677069 0.022529814 0.42932966 0.021459095 0.0055967323
0.10944635 0.023882395 -0.044769887 0.18446946 0.20066464 -0.049488947 -0.022434577 0.25567624
-0.047817383 -0.03262654 0.010320295 0.17285563 -0.054765895 -0.14894444 -0.03178608 0.05076042
0.035648208 -0.065003656 -0.065818734 -0.007433473 0.1830721 -0.0006246173 -0.031516664 0.12510225
0.038306363 0.007437498 -0.000937972 0.09858036 0.08375943 -0.07459538 0.020029142 0.100324094
0.027738094 -0.059174776 0.032518517 -0.2410852 -0.048632886 0.04167305 0.30115825 0.02945807
0.009105124 0.0926177 -0.020551369 0.057420813 0.037677176 -0.0514462 -0.017827041 0.04359879
0.003375165 0.045221224 0.022155583 0.08574575 0.00229276 0.0025301832 0.032193422 0.014895417
0.1594312 -0.06085933 0.33406752 0.022563338 -0.055387117 0.10570416 0.01004316 0.16439217
0.15331629 -0.03643177 -0.044677734 -0.04306535 0.043897953 0.1600911 0.07971381 -0.04003643
0.03402203 -0.04147134 0.016429758 0.12007298 -0.07787669 -0.050225206 -0.008536534 -0.03133842
00000000: 076d f53e cacc 1ebd 8438 8bbc 484c f63d
00000010: 566d 0dbd b138 00bd 8f13 35bb 92f7 983d
00000020: d76e 26bc 952c 153e 5e46 553c 23df 893c
00000030: d437 473d 8983 3b3d d199 f43d 16bc cdbe
00000040: 76f1 1e3e 68a8 193e 70f0 b8bc 6790 3d3d
00000050: d388 2ebd fd85 02bd 9cd2 d2bb 905e 1d3d
00000060: ff44 a53c 9600 f7bc 64fc 173e 9fae 8abd
00000070: d4c4 8bbd 0b26 02bd 99bc 9b3c 10ec 6b3e
00000080: d34b 3e3e 8604 b53d 174a 72bd 5919 32bd
00000090: 8f67 bf3c a14c 66be 20f7 083d b121 75bd
000000a0: e1e9 f13c ce93 ac3d b210 a2be 45df 0f3e
000000b0: 355d 82be 8701 a23d e3e6 26bc e122 e23d
000000c0: 2d1e 973d 247c 82bc a338 053d bd95 053d
000000d0: 36ba 933d df11 11be e71c ca3d 4cc9 933d
000000e0: 6d61 51bc 1755 c2bb ea56 a23c dc7d 92be
000000f0: 058c 03bd 3b7e 39bd 4328 493d e613 81bd
00000100: 57cc 52bd 9584 4cbd b2e6 37bd 6ec1 f6bd
00000110: 03f0 383b 0ca4 923d 1798 1ebd aa6a 363b
00000120: 6a66 6d3d bb41 c23d ae93 12bd fb6f 813d
00000130: 00dc b73d 70ec 00bc 161a 6e3d 95f1 673e
00000140: aafc 693e 6249 a3be 63e7 093d dd9e 973d
00000150: 92a2 c2bc f80b f238 d818 7d3c 386b 6fbd
00000160: dd44 9d3e 3e38 c23c 4c02 173d 40db 503d
00000170: 066c b3bd e508 c73c 1961 03bd 0a1f 2a3e
00000180: f28b 8f3e a7be 1cbd 08d5 823d 60b1 d33c
00000190: c907 2dbe 1097 473e fe5b 9e3d f858 883d
000001a0: 8d60 30bd 665c 0cbe 1fb5 bbbb ec55 3f3e
000001b0: 0be8 a03d 6e33 573d 0d5f 2b3c e8ec 4dbd
000001c0: e00b 9abb e094 4ebd 1645 e63c a50e 29bd
000001d0: 1a2e 853d 7ec7 f3bc d10c cdbd d32a 27bd
000001e0: 508b 59be c984 703c 17cb dfbe 0619 2bbe
000001f0: 8085 b1bc 2969 923d 848a 383d 81b2 9fbc
00000200: 7c91 a23d 6e94 bbbc 7943 10bd b2ca 0fbe
00000210: 983a 5d3d ed0d 263e 4de1 243e 8acc 21bd
00000220: e3f0 953d fa82 e1bc a7a5 433c 43f5 72bd
00000230: e8fd 10bd 6e4a 7ebe 3b62 733b 08ca 41bd
00000240: 1255 00bd fd29 14bd c492 91bc 630b a8bc
00000250: 9476 833c ab62 213e 5ece 793d ffaf 10bd
00000260: bd6e a7bb e0aa de3a 5173 abbd 586f 08bd
00000270: 4088 c73d ef25 833e b819 743d 093e a83d
00000280: 47d3 733d 75ca d53d 098c 18be 809c 52bc
00000290: 8b49 2cbc 3440 553d c3db 56bc 35a6 2dbc
000002a0: 4503 01be 801e 853a 0810 43b9 67b2 e73a
000002b0: 7290 b83c 19d1 db3e fcca af3c cb64 b73b
000002c0: 6825 e03d 03a5 c33c a160 37bd 90e5 3c3e
000002d0: 087b 4d3e ecb4 4abd b8c8 b7bc ffe7 823e
000002e0: 29dc 43bd 68a3 05bd 7416 293c 1101 313e
000002f0: 3452 60bd e484 18be 1f32 02bd 28ea 4f3d
00000300: db03 123d a320 85bd f9cb 86bd 7e94 f3bb
00000310: 4177 3b3e 5cbd 23ba 9e17 01bd ce1a 003e
00000320: 22e7 1c3d 41b6 f33b 3ce2 75ba 80e4 c93d
00000330: 108a ab3d 76c5 98bd 2814 a43c b876 cd3d
00000340: 003b e33c 4061 72bd 2332 053d 0adf 76be
00000350: 4733 47bd 5cb1 2a3d 6a31 9a3e 0d52 f13c
00000360: a82d 153c 59ae bd3d 585b a8bc 1632 6b3d
00000370: 6253 1a3d 40b9 52bd 040a 92bc a594 323d
00000380: df31 5d3b e439 393d a07f b53c 789b af3d
00000390: 2142 163b 6ed1 253b 40dd 033d e80b 743c
000003a0: ef41 233e a247 79bd e60a ab3e c0d6 b83c
000003b0: 9add 62bd 6c7b d83d 118c 243c 6c56 283e
000003c0: f2fe 1c3e 7b39 15bd 0000 37bd 4b65 30bd
000003d0: 57ce 333d ecee 233e fe40 a33d 3dfd 23bd
000003e0: af5a 0b3d dadd 29bd b397 863c d3e8 f53d
000003f0: d07d 9fbd f2b8 4dbd d2dc 0bbc b75c 00bd

4.weight f4 [26, 256]
-0.0050943885 -0.008991063 0.03919918 0.05293413 0.06502318 0.0033921874 0.017879454 -0.014511438
-0.020009717 -0.045494985 -0.015021549 -0.05315477 -0.050021503 -0.053309713 0.03813054 -0.009418006
0.030467855 0.03089262 -0.00078017486 -0.0006565893 -0.02085583 0.05508857 0.052823152 0.016448634
-0.046710532 -0.0109227365 0.031763896 0.0287519 -0.041804247 -0.074976854 -0.017906932 0.022176363
0.0063428716 -0.008326848 -0.015457263 0.0651862 0.041367404 -0.012990141 -0.03841055 -0.009960854
-0.03633248 0.041924104 0.026483739 -0.002757686 -0.005367408 0.03671841 -0.06571393 -0.014711606
0.042857338 -0.008429401 -0.03839569 -0.047643222 0.050825328 0.019309897 0.0005353878 -0.0105829155
-0.0067469287 -0.053685755 0.030180844 -0.0038277253 -0.0032426554 0.001520372 -0.0013537022 0.03218255
-0.01431101 -0.010294802 -0.0057356893 0.045294818 0.0287423 0.011471297 -0.0066099055 -0.0550835
0.015545238 0.021262823 -0.018067213 0.062083606 -0.026699929 -0.027891837 -0.0058376105 0.017971132
0.032841817 -0.006144041 -0.036723174 -0.0058537507 -0.042362966 0.057099506 -0.014219642 0.04153888
0.024088578 0.043570235 -0.015370995 0.045592457 -0.041410167 0.020658998 -0.024297005 0.025123734
0.015502959 -0.03171723 -0.03664455 0.002422072 -0.020437354 0.03923294 0.031548712 0.059858587
0.024730867 0.01733154 -0.005270144 0.017952574 0.041164126 -0.028180638 0.0027012385 -0.029043714
-0.05816099 -0.02197964 0.020408517 -0.052404217 0.027448956 -0.011292982 0.019274287 0.007942742
-0.004940642 0.009449965 -0.010545731 0.0063576056 0.005700685 0.026502267 0.008347863 -0.022769216
0.055217944 0.06347954 -0.005839324 -0.005188712 0.03746075 0.059984677 0.041101556 -0.0156998
-0.015610493 -0.0147330295 0.03564711 -0.019799346 0.00064601493 -0.0016774167 -0.022885028 -0.040892415
-0.052309442 -0.03017903 -0.009067474 -0.064714774 0.010049295 -0.0009238894 -0.03915993 0.022974817
-0.009318848 -0.017968124 -0.027548362 -0.028577186 -0.03406073 0.029069213 0.014062968 0.030609138
0.008953991 0.033660952 -0.0226347 -0.0143118035 -0.033819094 0.011375423 -0.01977923 0.020331796
-0.005763075 -0.0017703548 -0.0329315 -0.02517561 0.008996077 0.009958199 0.017615428 0.0039838785
0.0430601 0.0009853144 0.015223795 0.03269234 0.041765887 0.053677604 0.008666262 0.011899343
-0.022099985 -0.049769316 0.053307798 0.051158804 -0.030959425 0.010484379 0.014921949 -0.042803872
-0.0062806127 -0.011593026 0.010200466 0.023106927 0.034179244 0.041100297 0.030017827 0.027729357
0.029976781 0.0673302 -0.035093993 0.0026137806 -0.010927883 0.04253301 0.022807179 0.05523294
0.019364214 0.026580475 0.017785223 0.007334783 0.011426449 -0.050015893 -0.010938783 0.03275622
0.042158857 0.020255828 -0.031549945 0.0070361826 0.04214458 -0.015727498 -0.010156461 0.047346506
-0.045508415 0.03551896 -0.029770073 0.03432599 0.019005556 0.039054967 -0.03160136 0.015740318
0.0021166818 -0.020574618 0.0065588197 -0.0018666073 0.032651033 -0.010620871 -0.013963752 0.024691137
0.03810239 -0.03478548 0.056728557 -0.023893049 0.0059035267 0.015972827 0.01710358 0.039224442
0.049708564 -0.014276336 -0.045100037 0.03739559 -0.0103893895 -0.045718536 -0.020015404 -0.004689419
00000000: d4ee a6bb 404f 13bc 528f 203d 75d1 583d
00000010: df2a 853d 764f 5e3b ef77 923c 62c1 6dbc
00000020: 6beb a3bc f358 3abd f11c 76bc d1b8 59bd
00000030: 59e3 4cbd 495b 5abd c52e 1c3d fb4d 1abc
00000040: b997 f93c 8512 fd3c a684 4cba f61e 2cba
00000050: d8d9 aabc 8da4 613d 175d 583d 49bf 863c
00000060: 8b53 3fbd 47f5 32bc dc1a 023d 1b89 eb3c
00000070: ee3a 2bbd 778d 99bd 8fb1 92bc 34ab b53c
00000080: ddd7 cf3b 556d 08bc 7640 7dbc 5880 853d
00000090: de70 293d 9ad4 54bc 6254 1dbd da32 23bc
000000a0: 5ed1 14bd 9cb8 2b3d 6df4 d83c 4bba 34bb
000000b0: 15e1 afbb 0b66 163d 0695 86bd f308 71bc
000000c0: 2d8b 2f3d 781b 0abc cd44 1dbd 8a25 43bd
000000d0: 382e 503d ca2f 9e3c 4459 0c3a f763 2dbc
000000e0: 5715 ddbb 98e5 5bbd d13d f73c 93da 7abb
000000f0: bb82 54bb 3847 c73a b56e b1ba d9d1 033d
00000100: ba78 6abc 87ab 28bc 73f2 bbbb 0f87 393d
00000110: f974 eb3c 1bf2 3b3c e897 d8bb 3c9f 61bd
00000120: 74b1 7e3c 5f2f ae3c b101 94bc 614b 7e3d
00000130: cfb9 dabc 6c7d e4bc 6d49 bfbb 3238 933c
00000140: 2485 063d f453 c9bb 0a6b 16bd d2d0 bfbb
00000150: ca84 2dbd 2ce1 693d 80f9 68bc ac24 2a3d
00000160: 6955 c53c b476 323d a0d6 7bbc 28bf 3a3d
00000170: b59d 29bd 0f3d a93c 830a c7bc 4ad0 cd3c
00000180: 1f00 7e3c ede9 01bd 9818 16bd a0bb 1e3b
00000190: 3d6c a7bc b8b2 203d 3939 013d 472e 753d
000001a0: 6398 ca3c e0fa 8d3c 2cb1 acbb 4711 933c
000001b0: b79b 283d 15db e6bc 4307 313b 15ed edbc
000001c0: 383a 6ebd a50e b4bc c32f a73c cea5 56bd
000001d0: a2dc e03c 3306 39bc 1ce5 9d3c 4622 023c
000001e0: 1ce5 a1bb 07d4 1a3c 00c8 2cbc 7653 d03b
000001f0: d0cc ba3b 481b d93c 7ac5 083c 8286 babc
00000200: 362c 623d 9001 823d cd57 bfbb 1206 aabb
00000210: 7270 193d 7eb2 753d 1b5a 283d de9c 80bc
00000220: 27c3 7fbc ce62 71bc b402 123d 3d32 a2bc
00000230: 5459 293a c4dc dbba 6279 bbbc ce7e 27bd
00000240: 6d42 56bd 033a f7bc be8f 14bc 2e89 84bd
00000250: cca5 243c 2b31 72ba 2a66 20bd af35 bc3c
00000260: 15ae 18bc e331 93bc 1aad e1bc b41a eabc
00000270: 4483 0bbd 8f22 ee3c 5d68 663c 04c0 fa3c
00000280: c3b3 123c 11e0 093d 686c b9bc 0e7c 6abc
00000290: e485 0abd fb5f 3a3c 0d08 a2bc de8e a63c
000002a0: 2dd8 bcbb 400b e8ba 2ee3 06bd 153d cebc
000002b0: 4864 133c b727 233c 3b4e 903c 328b 823b
000002c0: ca5f 303d aa25 813a 396d 793c 67e8 053d
000002d0: b512 2b3d 0cdd 5b3d f0fc 0d3c 76f5 423c
000002e0: 070b b5bc e9da 4bbd 4759 5a3d e58b 513d
000002f0: 9f9e fdbc acc6 2b3c 317b 743c 1d53 2fbd
00000300: 99cd cdbb adf0 3dbc db1f 273c bd4a bd3c
00000310: 89ff 0b3d c958 283d f2e7 f53c ad28 e33c
00000320: de91 f53c 6ae4 893d b8be 0fbd f64b 2b3b
00000330: dd0a 33bc 1837 2e3d 1fd6 ba3c ef3b 623d
00000340: b3a1 9e3c 4cbf d93c 51b2 913c 9f58 f03b
00000350: 0036 3b3c 77dd 4cbd 9538 33bc 632b 063d
00000360: c4ae 2c3d 8def a53c 843a 01bd c78f e63b
00000370: cc9f 2c3d f4d6 80bc 4967 26bc 69ee 413d
00000380: 0867 3abd 547c 113d 5ee0 f3bc 6999 0c3d
00000390: 8ab1 9b3c 1af8 1f3d 6d70 01bd d7f1 803c
000003a0: 07b8 0a3b 1a8c a8bc 5eeb d63b f3a8 f4ba
000003b0: 17bd 053d 2903 2ebc 39c8 64bc 1145 ca3c
000003c0: 4011 1c3d 387b 0ebd 345c 683d 5bbb c3bc
000003d0: 5f72 c13b 72d9 823c cf1c 8c3c cfa9 203d
000003e0: 359b 4b3d 4be7 69bc d1ba 38bd 1e2c 193d
000003f0: 4238 2abc 5c43 3bbd 58f7 a3bc b3a9 99bb

4.bias f4 [26]
0.5411597 -0.29494977 -0.27064392 -0.030906621 -0.068983965 -0.04420073 -0.041262288 -0.06333726
-0.10043928 -0.0089812465 0.018655209 -0.073115356 -0.079755165 -0.099855326 -0.075343445 0.0048988815
-0.061386403 0.010538786 -0.045593597 -0.08967141 -0.006025918 -0.020667408 -0.013505324 -0.059858825
0.006634768 -0.07866147
00000000: 7189 0a3f a803 97be d791 8abe e22f fdbc
00000010: 7747 8dbd d30b 35bd a502 29bd f7b6 81bd
00000020: 1cb3 cdbd 1426 13bc cfd2 983c 81bd 95bd
00000030: ad56 a3bd f380 ccbd aa4d 9abd cc86 a03b
00000040: 4f70 7bbd dfaa 2c3c 5ac0 3abd a5a5 b7bd
00000050: 1075 c5bb b24e a9bc 6f45 5dbc 872e 75bd
00000060: 7868 d93b 4419 a1bd
