bc_model.pth (torch, 84961 bytes, 6 tensors)

0.weight f4 [128, 26]
-0.2000133 0.17872205 -0.093587644 0.30334622 -0.27733892 0.29473868 -0.11651171 0.020446062
0.04074602 0.058621004 0.15886648 0.051386535 0.27884287 -0.008333802 0.19032364 0.07149039
-0.05992333 0.25347063 -0.0019615502 0.033452265 0.10007523 -0.070337266 0.15183316 1.1169996e-05
0.12774335 0.33530813 -0.124459766 -0.19474487 0.19298734 -0.089702286 -0.004202187 -0.0138949305
0.10053314 -0.15462613 0.13086568 -0.13996366 -0.12698554 0.13495688 -0.14561343 -0.09809748
-0.051798284 -0.04563604 -0.1356161 0.17373495 -0.16598828 -0.095387705 0.0011993985 0.0860497
-0.16381797 0.030074403 0.059170686 -0.08417825 0.2216303 0.069879346 0.06546802 -0.15102887
0.23622462 -0.2115344 -0.105047084 -0.09763697 0.09332968 0.019726291 -0.011955857 0.11212613
-0.14566039 -0.3322431 -0.592842 0.13934991 -0.041490976 0.21596962 0.1765864 -0.1805791
-0.06940349 0.20017728 0.21422377 -0.12835386 -0.07271674 -0.039031506 -0.103769735 -0.025649399
0.0018003434 -0.0873818 -0.08301302 -0.12296834 0.11379467 0.09466712 -0.11081706 -0.14984787
-0.14718646 0.1095926 -0.14080521 0.108782455 -0.13779853 -0.16533141 0.046077713 -0.024274394
0.19239123 -0.14184065 0.1948374 -0.031183332 -0.09788065 -0.020522922 -0.19232441 0.18605457
0.08347504 0.01517347 -0.32185218 -0.2140434 -0.025177984 0.28711948 0.15183748 -0.004822314
-0.09585622 -0.07620521 0.057796493 0.057775095 0.1396492 0.06187955 -0.21010792 0.22889562
0.13020581 0.065508045 0.17121021 -0.15958925 0.022036415 0.2620865 0.1907257 -0.24026662
0.026224855 -0.22038952 0.057169154 -0.18866245 0.04472436 -0.07216394 0.14867674 0.119714096
-0.14245121 0.06863947 -0.035164565 -0.17942129 0.087606326 0.0123775005 -0.185676 -0.15209799
0.06264852 -0.033503056 -0.1702637 0.061726674 0.110664174 -0.1714562 -0.1427106 -0.040596157
-0.031142175 0.15025266 -0.066484064 0.08554126 0.24532564 -0.053026997 0.16407108 0.16087371
0.05786261 -0.23270988 0.10002561 -0.18655738 0.0712844 0.08946051 -0.012013182 -0.07426238
0.06925502 -0.2694134 -0.55516624 -0.0688421 0.09039196 0.15624629 -0.06566957 0.24156685
0.05150192 0.3293508 0.19977689 -0.08536507 -0.079204544 -0.17144889 0.08121343 0.04116368
0.039908092 0.25711232 -0.08914792 -0.06970954 0.17255889 -0.022198558 -0.1253658 -0.026036546
-0.17527257 0.13271414 0.088535026 -0.2903883 -0.40979895 -0.007129392 -0.09043147 0.008878274
0.005606496 0.09348696 0.18811633 0.2606239 -0.0466639 0.005513285 0.075868964 -0.101645604
-0.038898066 -0.043008327 0.072171316 0.18732657 0.07620637 0.11427052 -0.13530317 0.045494407
0.00050482154 0.1564999 -0.13738379 0.08097194 0.10701968 0.0038642287 -0.1950026 -0.18870562
-0.059750855 0.07212706 0.010769546 0.18343703 -0.06620474 0.12597774 -0.048616648 0.11844809
-0.13396627 -0.11512952 -0.12161566 -0.06855948 -0.19383709 -0.11897867 -0.13815925 0.11078055
0.14192073 0.1432917 0.19518586 0.09033792 -0.0757492 -0.007755488 0.16361184 -0.018155724
-0.07581366 -0.16084152 -0.115062684 0.16767775 -0.10999227 -0.033339575 0.059208915 0.04620503
00000000: 49d0 4cbe ea02 373e e1aa bfbd 3250 9b3e
00000010: 5eff 8dbe fde7 963e b19d eebd 807e a73c
00000020: 4ce5 263d 941c 703d e5ad 223e b07a 523d
00000030: 7ec4 8e3e 808a 08bc 33e4 423e 8e69 923d
00000040: 2a72 75bd e7c6 813e 5a8d 00bb 3e05 093d
00000050: 3ef4 cc3d fc0c 90bd 277a 1b3e c466 3b37
00000060: 27cf 023e 82ad ab3e c3e4 febd 336b 47be
00000070: 799e 453e d5b5 b7bd 80b2 89bb 90a7 63bc
00000080: 52e4 cd3d 5056 1ebe a701 063e a252 0fbe
00000090: 7f08 02be 2332 0a3e b01b 15be 55e7 c8bd
000000a0: 702a 54bd dbec 3abd f2de 0abe 93e7 313e
000000b0: d5f8 29be a15a c3bd 2335 9d3a d33a b03d
000000c0: e6bf 27be 985e f63c f65c 723d a565 acbd
000000d0: 0ef3 623e e71c 8f3d 1914 863d 50a7 1abe
000000e0: dee4 713e 799c 58be ed22 d7bd e4f5 c7bd
000000f0: a223 bf3d 0899 a13c 80e2 43bc 62a2 e53d
00000100: ff27 15be c51b aabe 7ec4 17bf beb1 0e3e
00000110: 71f2 29bd 2427 5d3e 11d3 343e bae9 38be
00000120: 6b23 8ebd 46fb 4c3e 7a5d 5b3e 326f 03be
00000130: 84ec 94bd 80df 1fbd 3a85 d4bd b01e d2bc
00000140: 80f9 eb3a 3bf5 b2bd bb02 aabd d3d6 fbbd
00000150: 2e0d e93d d6e0 c13d 0ef4 e2bd b871 19be
00000160: 0cb8 16be 1672 e03d 3e2f 10be 56c9 de3d
00000170: 0f1b 0dbe a34c 29be fcbb 3c3d 18db c6bc
00000180: 3502 453e ad3e 11be 7583 473e 3074 ffbc
00000190: a675 c8bd b01f a8bc b1f0 44be 1785 3e3e
000001a0: f6f4 aa3d 259a 783c cfc9 a4be 312e 5bbe
000001b0: 0f42 cebc 5301 933e 497b 1b3e 8004 9ebb
000001c0: 4450 c4bd 7a11 9cbd 04bc 6c3d 94a5 6c3d
000001d0: 3300 0f3e 6975 7d3d 8826 57be 9d63 6a3e
000001e0: ac54 053e 1529 863d bb51 2f3e 5d6b 23be
000001f0: b685 b43c 3430 863e 994d 433e 7408 76be
00000200: 82d5 d63c caad 61be 342a 6a3d bb30 41be
00000210: e430 373d b0ca 93bd b73e 183e aa2c f53d
00000220: bbde 11be da92 8c3d b808 10bd 37ba 37be
00000230: f26a b33d 00cb 4a3c d921 3ebe 93bf 1bbe
00000240: de4d 803d 803a 09bd 9b59 2ebe 1cd5 7c3d
00000250: e6a3 e23d 3792 2fbe ba22 12be 2848 26bd
00000260: e01d ffbc d5db 193e cc28 88bd 4230 af3d
00000270: a536 7b3e d632 59bd 4002 283e 14bc 243e
00000280: 5801 6d3d 804b 6ebe 3ada cc3d e608 3fbe
00000290: 8efd 913d 1237 b73d f0d2 44bc e016 98bd
000002a0: 93d5 8d3d 8ef0 89be 601f 0ebf 16fd 8cbd
000002b0: 6c1f b93d 07ff 1f3e c47d 86bd 4d5d 773e
000002c0: adf3 523d aba0 a83e 5092 4c3e e2d3 aebd
000002d0: fe35 a2bd 4c90 2fbe 3a53 a63d 3f9b 283d
000002e0: ab76 233d 3aa4 833e 2f93 b6bd e0c3 8ebd
000002f0: 47b3 303e c0d9 b5bc e45f 00be 984a d5bc
00000300: a77a 33be 37e6 073e da51 b53d c6ad 94be
00000310: 2bd1 d1be ad9d e9bb 2234 b9bd 2e76 113c
00000320: b2b6 b73b 1776 bf3d 91a1 403e 7f70 853e
00000330: a522 3fbd c9a8 b43b 3061 9b3d 922b d0bd
00000340: 9453 1fbd 8029 30bd 8ece 933d 89d2 3f3e
00000350: 1612 9c3d aa06 ea3d ea8c 0abe 5858 3a3d
00000360: 0056 043a 8341 203e 56ae 0cbe 9ed4 a53d
00000370: 222d db3d 003f 7d3b c3ae 47be 0c3c 41be
00000380: 50bd 74bd 5ab7 933d c072 303c ebd6 3b3e
00000390: 5a96 87bd 4f00 013e 4022 47bd ea94 f23d
000003a0: 742e 09be 07c9 ebbd a211 f9bd ea68 8cbd
000003b0: 3b7d 46be 17ab f3bd 9e79 0dbe eae0 e23d
000003c0: ab53 113e 0fbb 123e cdde 473e 1603 b93d
000003d0: 6622 9bbd c021 febb dd89 273e 50bb 94bc
000003e0: 3144 9bbd a4b3 24be fca5 ebbd b7b3 2b3e
000003f0: a143 e1bd 148f 08bd 0c85 723d 7c41 3d3d

0.bias f4 [128]
0.1691108 0.08755944 0.1328318 0.13348089 0.1904965 -0.011927083 -0.039689094 0.07935487
-0.1161088 -0.03538321 0.19542001 0.22049013 -0.15125161 0.12553726 0.2259436 -0.110247806
-0.049389232 0.15709391 -0.14849317 0.071655646 0.022833928 0.12472096 0.1591671 -0.083189994
-0.0446793 -0.030897608 -0.18328518 -0.022597017 -0.10947548 0.12717113 0.15273331 0.07195035
-0.1650935 0.12797229 -0.14397892 0.20811701 -0.08867158 -0.062387228 -0.031962708 -0.020645991
0.056619857 0.23136932 -0.18282454 0.22491002 -0.0511712 -0.05228392 -0.052358493 0.045918897
0.24158739 0.19035046 0.11665687 -0.110434346 0.07472045 0.0024922788 0.051261596 -0.014514089
0.18567511 0.07331924 -0.0807001 -0.17683238 -0.05460785 0.22472462 0.020745108 0.09187451
0.14562285 -0.16737188 0.007549931 0.026023222 0.24225856 0.13214281 0.04688746 -0.055201784
-0.03441875 0.02366261 0.11529445 0.12137414 -0.087172 -0.10483256 0.06886174 0.19613309
0.21425073 -0.015908131 -0.058196086 -0.00031123322 -0.15596388 0.258205 -0.10089277 -0.0971286
0.03264111 0.046820577 -0.19607168 0.12565805 -0.073332965 -0.10615705 -0.014869407 -0.101087324
0.1008417 0.09050024 0.21700461 -0.09092741 0.07378726 0.14609727 -0.16047947 0.040782828
0.13865712 0.20939726 -0.014251032 0.0009418428 0.21529846 0.08894453 -0.129471 0.0022521226
0.2308958 0.031760383 0.13421467 0.12684764 0.18976994 -0.17751582 -0.059485726 0.097238526
-0.08726021 -0.06476674 -0.18701488 0.17595755 -0.06640887 -0.12789007 -0.16604796 0.017031785
00000000: 622b 2d3e 5d52 b33d 0f05 083e 37af 083e
00000010: 8411 433e d069 43bc 0891 22bd ce84 a23d
00000020: 73ca edbd fced 10bd 2f1c 483e 2ac8 613e
00000030: b4e1 1abe d78c 003e c25d 673e 9ac9 e1bd
00000040: 5d4c 4abd 3add 203e 980e 18be 32c0 923d
00000050: 380e bb3c b46d ff3d b3fc 223e 845f aabd
00000060: a401 37bd fb1c fdbc 1caf 3bbe 611d b9bc
00000070: ae34 e0bd 2639 023e 1f66 1c3e b55a 933d
00000080: 450e 29be 2b0b 033e 366f 13be a01c 553e
00000090: 7299 b5bd c089 7fbd 54eb 02bd c821 a9bc
000000a0: 39ea 673d 14ec 6c3e 5b36 3bbe d04e 663e
000000b0: e498 51bd aa27 56bd dc75 56bd 7415 3c3d
000000c0: af62 773e 3beb 423e cce9 ee3d 672b e2bd
000000d0: 0907 993d 8055 233b aef7 513d 80cc 6dbc
000000e0: 9e21 3e3e 6628 963d 1846 a5bd 8c13 35be
000000f0: 7bac 5fbd 361e 663e a5f1 a93c b428 bc3d
00000100: 281e 153e 8963 2bbe 6965 f73b a72e d53c
00000110: a112 783e 7250 073e 110d 403d 441b 62bd
00000120: adfa 0cbd 17d8 c13c 7f1f ec3d 0193 f83d
00000130: 3c87 b2bd 74b2 d6bd 6207 8d3d 1dd7 483e
00000140: 8b64 5b3e c551 82bc 055f 6ebd 042d a3b9
00000150: ffb4 1fbe 7233 843e dea0 cebd 5ceb c6bd
00000160: afb2 053d efc6 3f3d 04c7 48be 81ac 003e
00000170: 982f 96bd de68 d9bd d09e 73bc df06 cfbd
00000180: 1886 ce3d 3158 b93d 7536 5e3e 2638 babd
00000190: c61d 973d 869a 153e bb54 24be e50b 273d
000001a0: 22fc 0d3e 3c6c 563e 297d 69bc 00e6 763a
000001b0: 3377 5c3e 8d28 b63d 0c94 04be 5998 133b
000001c0: f36f 6c3e 2d17 023d 926f 093e 59e4 013e
000001d0: 0d53 423e b5c6 35be 4ea7 73bd fe24 c73d
000001e0: 7bb5 b2bd 6da4 84bd d480 3fbe 372e 343e
000001f0: 6001 88bd 9df5 02be 7a08 2abe 3e86 8b3c

2.weight f4 [128, 128]
0.04307222 0.00916943 0.007141336 -0.005132064 -0.081741594 -0.030163918 -0.017377451 0.002926556
0.044695415 0.049761944 -0.10521755 -0.039702203 0.05744915 -0.0474125 -0.0071856445 -0.010452926
-0.10694275 -0.08788013 -0.0068791583 0.0032039285 0.084050305 0.031578284 -0.04055676 -0.022256855
0.07557171 -0.071525544 -0.07535589 -0.030532911 0.058556236 -0.08269301 -0.07611775 0.061746437
-0.08228649 0.064857624 0.071016915 -0.062110815 -0.03779647 0.030934647 -0.075402394 0.038867958
-0.028384225 -0.030710744 -0.06629963 0.039873812 0.007304892 -0.028181305 -0.06533627 0.03597922
0.045871712 -0.035239242 -0.076652795 -0.050175212 -0.1006152 -0.07092804 -0.10539384 -0.050473537
0.050306126 -0.076137066 0.038137056 0.08247206 -0.0049879164 -0.032535385 0.021501187 -0.079243846
0.047228836 -0.07841676 -0.021671988 0.062348384 -0.09238719 -0.0261867 0.026371952 -0.018075645
-0.054353107 0.087865 0.057278622 0.08775867 -0.055836227 0.04585553 0.005747862 0.059529424
-0.029808393 -0.020220114 0.0005404979 0.019623643 0.0024598818 -0.07688915 -0.078702874 0.06672902
-0.06827891 0.070216134 -0.0075013787 -0.043258283 -0.014615729 -0.021484137 -0.039383963 0.021204561
-0.070396654 0.054251395 -0.08185026 0.03474239 -0.0401795 -0.10031353 0.049292766 -0.08975808
-0.044373974 -0.061428357 -0.05051141 0.032577544 -0.051935133 -0.05001794 0.03207334 -0.07489113
-0.035743408 -0.011834025 0.0012587844 -0.047962714 0.019440267 0.03956399 -0.09182858 -0.0502576
0.030434653 -0.018818475 0.051595874 0.025446022 0.030835256 -0.017439028 0.017412156 0.018326996
-0.005971583 -0.0196192 0.07216879 0.013727345 0.0073679965 0.03654059 0.22311506 0.22786824
-0.005530596 -0.014261931 -0.059928983 0.063471764 0.22411118 0.25411174 0.055487867 -0.0462914
0.2624209 -0.00389306 -0.035855092 0.002192922 -0.044364087 0.12017417 0.06422903 -0.07049629
-0.022047363 0.10715263 0.0365192 -0.10633014 0.1495075 -0.039006572 0.05540085 0.2969128
0.07630747 -0.11402812 -0.04669779 0.090021394 -0.0606723 -0.008999974 0.029496575 0.0250621
0.30974194 0.29900447 -0.17223942 -0.08773221 0.034907475 -0.20269033 0.025470443 0.081908084
0.17944612 0.30717948 -0.022093197 0.13757351 -0.08563603 -0.008862987 -0.18693803 -0.07204215
0.30720085 0.050977282 0.056702174 -0.013241306 -0.16960523 0.010115486 0.048780657 0.069187105
0.14720352 -0.08485668 0.23180449 0.09544053 -0.028225964 0.1451057 0.03861743 0.007838979
0.040019467 0.08031693 0.003413273 -0.04231137 -0.07839902 -0.08270989 -0.030382555 0.13467738
-0.13889912 -0.11066144 -0.06831524 0.02761969 -0.10577006 0.053064864 0.10156223 0.011640367
0.21494281 0.110292934 0.04544211 0.045956664 0.051891576 0.27869317 -0.005110018 0.13335712
0.19244385 0.22014402 -0.00011553587 0.1984586 0.113034464 0.08089906 -0.06644614 -0.075633444
-0.02272462 0.2040227 0.039034568 0.021836556 0.24106611 0.08837135 0.05952979 -0.014346113
0.1436051 -0.059994645 0.115588926 -0.07009386 -0.06980031 0.07128947 0.01623038 0.111326955
-0.07689078 -0.12029203 0.008273825 -0.05996779 -0.011506703 0.25045672 -0.009454325 -0.1783048
00000000: 7f6c 303d 603b 163c de01 ea3b e02a a8bb
00000010: 2368 a7bd 521a f7bc 285b 8ebc 76cb 3f3b
00000020: 8a12 373d 2ed3 4b3d 4d7c d7bd c79e 22bd
00000030: cd4f 6b3d 9c33 42bd 8e75 ebbb c042 2bbc
00000040: cd04 dbbd 7ffa b3bd 906a e1bb 00f9 513b
00000050: 9122 ac3d 3b58 013d d81e 26bd 0254 b6bc
00000060: 57c5 9a3d fc7b 92bd 3054 9abd 2820 fabc
00000070: aad8 6f3d f45a a9bd 9fe3 9bbd d5e9 7c3d
00000080: d285 a8bd 13d4 843d 5171 913d e967 7ebd
00000090: 79d0 1abd a86a fd3c 926c 9abd 0234 1f3d
000000a0: 0986 e8bc 1995 fbbc 1ac8 87bd b952 233d
000000b0: e05d ef3b 7bdc e6bc 06cf 85bd f25e 133d
000000c0: fae3 3b3d 0657 10bd 24fc 9cbd 8684 4dbd
000000d0: 580f cebd b842 91bd bad8 d7bd 57bd 4ebd
000000e0: cc0d 4e3d c0ed 9bbd 9a35 1c3d 1de7 a83d
000000f0: ad71 a3bb d343 05bd 4223 b03c 994a a2bd
00000100: 0673 413d f798 a0bd 7489 b1bc 0561 7f3d
00000110: 7f35 bdbd 7e85 d6bc fe09 d83c 6013 94bc
00000120: 5da1 5ebd 91f2 b33d fd9c 6a3d d1ba b33d
00000130: 87b4 64bd 02d3 3b3d 9058 bc3b 20d5 733d
00000140: bb30 f4bc a7a4 a5bc 33b0 0d3a c3c1 a03c
00000150: f835 213b 0f78 9dbd f92e a1bd 39a9 883d
00000160: d0d5 8bbd 7acd 8f3d 20ce f5bb 992f 31bd
00000170: d076 6fbc 80ff afbc 1451 21bd 30b5 ad3c
00000180: 1f2c 90bd b636 5e3d 1ca1 a7bd 094e 0e3d
00000190: 4293 24bd 2e71 cdbd 36e7 493d 16d3 b7bd
000001a0: 7cc1 35bd 4d9c 7bbd 0de5 4ebd 0870 053d
000001b0: efb9 54bd 9ddf 4cbd 565f 033d 8560 99bd
000001c0: ae67 12bd 80e3 41bc ccfd a43a 8d74 44bd
000001d0: 3241 9f3c da0d 223d 9f10 bcbd eada 4dbd
000001e0: 1852 f93c 3429 9abc 3256 533d 2d74 d03c
000001f0: 389a fc3c 4bdc 8ebc f0a3 8e3c 7f22 963c
00000200: 45ad c3bb 72b8 a0bc 3bcd 933d a8e8 603c
00000210: 3c6f f13b 96ab 153d 4678 643e 4b56 693e
00000220: 003a b5bb e0aa 69bc 1878 75bd 7cfd 813d
00000230: 677d 653e ef1a 823e 3f47 633d 0d9c 3dbd
00000240: 085c 863e b522 7fbb cadc 12bd 20b7 0f3b
00000250: 1eb7 35bd e01d f63d 828a 833d 5c60 90bd
00000260: ac9c b4bc d772 db3d 2895 153d 9ec3 d9bd
00000270: 7e18 193e 5bc5 1fbd 00ec 623d f404 983e
00000280: 1747 9c3d 9387 e9bd 2f46 3fbd 235d b83d
00000290: 8583 78bd a074 13bc cda2 f13c 084f cd3c
000002a0: 7f96 9e3e 1d17 993e 885f 30be f2ac b3bd
000002b0: 24fb 0e3d 0e8e 4fbe 64a7 d03c 6dbf a73d
000002c0: b9c0 373e a146 9d3e cbfc b4bc 12e0 0c3e
000002d0: f161 afbd 1036 11bc af6c 3fbe d68a 93bd
000002e0: 6e49 9d3e 8ecd 503d 8a40 683d 10f2 58bc
000002f0: feac 2dbe 6cbb 253c 3ace 473d f8b1 8d3d
00000300: 85bc 163e 57c9 adbd 285e 6d3e 5376 c33d
00000310: 233a e7bc 9796 143e 4f2d 1e3d 106f 003c
00000320: 74eb 233d 347d a43d 38b1 5f3b b04e 2dbd
00000330: aa8f a0bd ce63 a9bd d6e4 f8bc dee8 093e
00000340: 923b 0ebe 77a2 e2bd dce8 8bbd b042 e23c
00000350: f99d d8bd 8b5a 593d dcff cf3d 3db7 3e3c
00000360: f819 5c3e 43e1 e13d 8221 3a3d 0e3d 3c3d
00000370: 438c 543d dfb0 8e3e f071 a7bb c58e 083e
00000380: 0010 453e 6f6d 613e d94b f2b8 bb38 4b3e
00000390: 9d7e e73d 68ae a53d ea14 88bd b5e5 9abd
000003a0: fb28 babc 54eb 503e b6e2 1f3d 94e2 b23c
000003b0: 09da 763e 0afc b43d 82d5 733d f60b 6bbc
000003c0: 370d 133e f2bc 75bd e3b9 ec3d 5f8d 8fbd
000003d0: 77f3 8ebd 3700 923d 93f5 843c 63ff e33d
000003e0: ea78 9dbd ab5b f6bd f08e 073c c9a0 75bd
000003f0: 9c86 3cbc dd3b 803e 50e6 1abc 8995 36be

2.bias f4 [128]
0.036609888 0.04238109 0.018557843 -0.08483981 -0.035502028 0.052344695 0.10967488 0.034340315
0.053888038 0.09900716 -0.029654333 -0.04169368 0.0058359113 -0.056149986 0.09458491 -0.0428317
0.09277913 -0.012848434 0.05199485 -0.08107035 -0.0122014545 0.033392802 0.028642323 0.042149577
0.009032197 -0.06666873 0.0012439567 0.07058088 -0.0012459212 0.003231589 0.061026502 0.09158138
0.07641335 0.0012242061 0.008908792 0.051672474 -0.01713608 0.08951802 -0.022229776 0.04281808
-0.07136736 0.010157966 0.0666017 0.10161383 -0.024947867 -0.016629217 0.064437844 -0.02160658
-0.0068105906 0.06478321 0.010647829 0.103390224 -0.042446427 -0.03386993 0.03846045 -0.046860788
-0.064273715 0.03510933 0.067686185 -0.035780173 -0.04212007 -0.037802592 0.02305766 0.10961326
0.056674723 0.086945884 0.0106620155 0.07915669 0.10632697 0.10513449 0.015405733 -0.015353851
-0.029235363 0.09005208 0.0976936 0.13039824 -0.044349294 -0.002605723 -0.034983654 -0.03873888
-0.033389352 0.014084493 0.009568989 -0.019673035 0.10316062 0.08493902 -0.0105266925 0.008401185
0.013697514 0.067014076 0.043765593 0.011853622 0.010573266 0.019001598 -0.032685537 -0.02301224
0.033404812 0.112139456 0.06589496 -0.031474408 0.011851341 -0.01714251 0.027388765 -0.04784317
0.12094686 0.10768145 -0.038556855 0.03570477 -0.0021102205 0.073980816 0.030029915 -0.014895986
0.055966802 -0.072289 0.05827694 -0.036547493 -0.0820269 0.07911159 0.033866815 0.08520326
0.027489789 0.002802705 0.059947245 0.068326235 0.06831275 -0.06969147 -0.05361018 0.04623817
00000000: 40f4 153d cb97 2d3d 9e06 983c 7fc0 adbd
00000010: 936a 11bd 6467 563d 399d e03d 6ea8 0c3d
00000020: b4b9 5c3d 44c4 ca3d a5ed f2bc fec6 2abd
00000030: 2c3b bf3b 87fd 65bd bcb5 c13d 4b70 2fbd
00000040: fc02 be3d 3d82 52bc 8df8 543d 3608 a6bd
00000050: 9ce8 47bc e4c6 083d 4ea3 ea3c 09a5 2c3d
00000060: c8fb 133c 9d89 88bd 430c a33a b58c 903d
00000070: 2e4e a3ba 11c9 533b edf6 793d 058f bb3d
00000080: 9a7e 9c3d 8a75 a03a 2ff6 113c 84a6 533d
00000090: f760 8cbc 3955 b73d 381b b6bc 0362 2f3d
000000a0: 0d29 92bd 996d 263c 7966 883d e91a d03d
000000b0: 785f ccbc ff39 88bc fdf7 833d 4800 b1bc
000000c0: 602b dfbb 0fad 843d 3b74 2e3c 41be d33d
000000d0: 4edc 2dbd 32bb 0abd b488 1d3d 19f1 3fbd
000000e0: f0a1 83bd cdce 0f3d 0e9f 8a3d 3b8e 12bd
000000f0: 1886 2cbd e4d6 1abd 6be3 bc3c eb7c e03d
00000100: c123 683d af10 b23d bcaf 2e3c e71c a23d
00000110: f4c1 d93d c050 d73d 5468 7c3c b88e 7bbc
00000120: 007f efbc 3a6d b83d 9513 c83d 1e87 053e
00000130: 9ba7 35bd c7c4 2abb 054b 0fbd a9ac 1ebd
00000140: 46c3 08bd a5c2 663c 40c7 1c3c 5829 a1bc
00000150: e045 d33d 82f4 ad3d 2678 2cbc 20a5 093c
00000160: 8a6b 603c ad3e 893d 8d43 333d b235 423c
00000170: 7e3b 2d3c 3da9 9b3c 45e1 05bd 2a84 bcbc
00000180: 7cd3 083d 5fa9 e53d f0f3 863d 4feb 00bd
00000190: 212c 423c 736e 8cbc 675e e03c 33f7 43bd
000001a0: fdb2 f73d 1888 dc3d cbed 1dbd 2a3f 123d
000001b0: a04b 0abb 4183 973d 4c01 f63c 4b0e 74bc
000001c0: 723d 653d 410c 94bd cdb3 6e3d d3b2 15bd
000001d0: b8fd a7bd 4205 a23d eeb7 0a3d 0c7f ae3d
000001e0: 4432 e13c 96ad 373b 3e8b 753d a0ee 8b3d
000001f0: 8ee7 8b3d 67ba 8ebd 5996 5bbd 3c64 3d3d

4.weight f4 [4, 128]
-0.029967403 0.024715615 0.3331875 -0.023417912 -0.079316646 0.22652623 -0.041550398 0.1926557
-0.018644325 0.12451255 -0.06037981 0.29833493 -0.031373296 0.05914512 0.25047517 -0.3067475
0.01274981 0.32489952 0.080618985 0.0498855 -0.06862637 0.25637165 0.20791373 -0.07385566
0.14915647 -0.33524257 -0.17325656 0.14830877 -0.05363068 0.116291665 0.022820508 0.23171857
0.24542032 -0.17214622 0.22892745 -0.054736458 -0.04067822 0.08309849 0.23449288 0.14994125
-0.07876482 -0.0040787086 0.114937685 -0.13485624 -0.016281925 -0.025498608 0.03958846 -0.015637122
0.08748602 0.107095115 -0.07806425 -0.07041309 -0.07810753 -0.1700183 0.19906865 -0.003928997
-0.06958982 -0.02581313 0.076576054 -0.06276952 -0.077297546 -0.039562907 0.12845905 0.2364131
0.24929896 0.29359928 0.13070619 0.19701359 0.13687743 -0.31449342 0.20886955 0.057496525
-0.031902824 -0.18421197 -0.12022933 0.11930667 -0.046171308 0.17429532 -0.28245345 0.21355699
-0.057348665 -0.21986735 0.08247357 -0.040902633 0.06794852 -0.17192352 -0.3183344 -0.042123225
0.3417967 0.28368714 -0.018047739 -0.04958315 -0.24715245 -0.049605075 -0.0007537137 -0.1773327
-0.025868617 -0.04957637 0.1274396 0.17426506 0.08235764 -0.28391674 -0.042902503 -0.02688515
0.3909733 0.12351031 0.31700972 -0.0705179 0.0019330755 -0.009181782 0.21346915 0.18079413
0.051544614 -0.058682036 0.20544109 -0.18873197 -0.035091 -0.19814758 0.25641847 0.6341215
0.32287174 -0.021557322 0.24674359 -0.23638833 0.27508563 0.04628448 0.07949246 -0.07006993
0.049350664 -0.28282928 -0.22989282 -0.0036348477 -0.0680982 0.052770864 -0.26418194 -0.2373513
0.03186249 -0.2301514 0.017361317 0.19731256 0.044986848 0.13868135 -0.038572054 0.17848496
-0.06902645 -0.23170716 0.031303953 0.045493707 0.0052621975 -0.28973418 -0.15055855 0.04774945
-0.1598753 0.39311597 0.25907207 -0.22085042 -0.03991602 -0.33915427 -0.0791276 -0.14110728
0.1257032 0.26120636 -0.11556025 -0.052701943 0.12393859 -0.35274947 -0.11571121 -0.16723844
-0.07081686 0.048010632 -0.18828838 0.1413084 -0.020805046 0.041759066 0.0058960468 -0.04742238
-0.2983142 -0.0642617 -0.022525176 0.26203614 -0.0095561445 0.22990535 -0.18360935 0.048525438
0.058479466 -0.04550887 -0.29084533 0.034757677 0.03416202 0.0021807204 0.027600354 -0.23520367
0.060941666 -0.017746348 -0.2744262 0.12186221 -0.030685723 -0.23653056 0.2397906 -0.08066411
-0.01606778 0.13582326 0.20965841 -0.21187347 0.2440369 -0.29513025 0.1574455 -0.043385215
-0.08570504 0.24911736 -0.03801691 0.0048925383 -0.2344635 0.07232671 -0.03612923 -0.0035966411
-0.016097048 -0.16673365 0.005236872 -0.06479687 0.17237428 -0.37828594 -0.0063440157 0.24504687
-0.00020594895 -0.17401677 -0.14591654 0.040613186 0.040882 0.016523799 0.011107504 0.029702889
-0.069194 -0.24841379 -0.102905765 0.06303658 0.048785888 -0.24588056 -0.11333527 0.108991876
0.027856693 -0.0031366125 -0.2312875 0.1295519 0.07768978 -0.27383986 -0.26568285 -0.27525178
0.14120689 0.00486248 -0.11491829 -0.11055282 -0.041228507 0.0646144 0.018379942 0.035139833
00000000: 337e f5bc 6778 ca3c 8d97 aa3e ecd6 bfbc
00000010: c470 a2bd 7ef6 673e c030 2abd 8947 453e
00000020: fcbb 98bc 7000 ff3d d250 77bd 5bbf 983e
00000030: 4981 00bd 2742 723d 483e 803e 020e 9dbe
00000040: 94e4 503c 3b59 a63e 911b a53d bd54 4c3d
00000050: fb8b 8cbd 2543 833e 56e7 543e a341 97bd
00000060: 79bc 183e eaa4 abbe 2b6a 31be 41de 173e
00000070: d8ab 5bbd 532a ee3d 13f2 ba3c a247 6d3e
00000080: 774f 7b3e 1947 30be f56b 6a3e 5633 60bd
00000090: 359e 26bd 8b2f aa3d e71e 703e 338a 193e
000000a0: 734f a1bd b0a6 85bb 7364 eb3d c117 0abe
000000b0: ac61 85bc 75e2 d0bc 8227 223d 6c19 80bc
000000c0: df2b b33d af54 db3d 26e0 9fbd bd34 90bd
000000d0: d7f6 9fbd 4719 2ebe a7d8 4b3e d1be 80bb
000000e0: 1c85 8ebd 0f76 d3bc e8d3 9c3d 4e8d 80bd
000000f0: 2d4e 9ebd b70c 22bd c58a 033e 4716 723e
00000100: 3a48 7f3e a552 963e d8d7 053e eebd 493e
00000110: 9929 0c3e 4805 a1be e6e1 553e 7a81 6b3d
00000120: 89ac 02bd 10a2 3cbe cc3a f6bd 0e57 f43d
00000130: 201e 3dbd 797a 323e bd9d 90be afae 5a3e
00000140: 6fe6 6abd e824 61be e7e7 a83d 8589 27bd
00000150: 9828 8b3d b80c 30be bafc a2be 6789 2cbd
00000160: faff ae3e 713f 913e dad8 93bc b317 4bbd
00000170: 8815 7dbe b12e 4bbd df94 45ba b496 35be
00000180: 6cea d3bc 9710 4bbd 877f 023e 8a72 323e
00000190: 1fab a83d 895d 91be 89ba 2fbd 3f3e dcbc
000001a0: a72d c83e f9f2 fc3d 194f a23e b06b 90bd
000001b0: 405f fd3a 2f6f 16bc a897 5a3e 1922 393e
000001c0: 7220 533d 935c 70bd 265f 523e f442 41be
000001d0: 95bb 0fbd 33e7 4abe 4849 833e c955 223f
000001e0: 724f a53e fb98 b0bc 5aaa 7c3e c80f 72be
000001f0: 06d8 8c3e cb94 3d3d f1cc a23d d380 8fbd
00000200: ec23 4a3d 00cf 90be 0669 6bbe a036 6ebb
00000210: 1277 8bbd 4326 583d db42 87be 380c 73be
00000220: 3e82 023d cfac 6bbe 5239 8e3c 4e0c 4a3e
00000230: 2144 383d 7c02 0e3e bbfd 1dbd c3c4 363e
00000240: bd5d 8dbd a444 6dbe 9338 003d 9c57 3a3d
00000250: 836e ac3b 0a58 94be 052c 1abe ed94 433d
00000260: 5ab6 23be 7f46 c93e 18a5 843e 9d26 62be
00000270: fb7e 23bd a1a5 adbe a70d a2bd 6d7e 10be
00000280: 57b8 003e d7bc 853e daaa ecbd fedd 57bd
00000290: 84d3 fd3d 949b b4be 00fa ecbd 8e40 2bbe
000002a0: 6e08 91bd cca6 443d abce 40be 26b3 103e
000002b0: 586f aabc 8e0b 2b3d a033 c13b f83d 42bd
000002c0: a4bc 98be a39b 83bd b886 b8bc 9a29 863e
000002d0: 6091 1cbc 4f6c 6b3e 1704 3cbe 9cc2 463d
000002e0: 2a88 6f3d 8267 3abd aee9 94be 115e 0e3d
000002f0: 79ed 0b3d 6bea 0e3b 231a e23c 3bd9 70be
00000300: f89d 793d ca60 91bc 9781 8cbe e592 f93d
00000310: a060 fbbc 1135 72be ab8b 753e 3a33 a5bd
00000320: 94a0 83bc 4115 0b3e b2b0 563e 5cf5 58be
00000330: cfe4 793e 501b 97be 6539 213e b2b4 31bd
00000340: 2086 afbd 9f18 7f3e 9fb7 1bbd 9651 a03b
00000350: 3317 70be 0720 943d 3efc 13bd a0b5 6bbb
00000360: f5dd 83bc 3abc 2abe 119a ab3b 39b4 84bd
00000370: e282 303e b2ae c1be 76e1 cfbb 91ed 7a3e
00000380: 00f4 57b9 7431 32be 256b 15be 035a 263d
00000390: e273 273d eb5c 873c 40fc 353c 7953 f33c
000003a0: 95b5 8dbd 2f60 7ebe 42c0 d2bd 5319 813d
000003b0: b6d3 473d 1dc8 7bbe 521c e8bd 2237 df3d
000003c0: b833 e43c a08f 4dbb a1d6 6cbe 41a9 043e
000003d0: d21b 9f3d bd34 8cbe 9507 88be cded 8cbe
000003e0: 8a98 103e 7055 9f3b 485a ebbd 8469 e2bd
000003f0: 39df 28bd 8e54 843d 8891 963c c9ee 0f3d

4.bias f4 [4]
0.031381175 -0.008439934 0.0038874745 0.023494257
00000000: 8c89 003d a647 0abc 00c5 7e3b 0777 c03c
