bc_model.pth (torch, 500769 bytes, 6 tensors)

0.weight f4 [256, 202]
0.03815052 0.04593524 0.009802244 0.032739628 -0.015416075 0.027271204 -0.053343497 0.018244522
0.062025145 -0.051617894 0.07382843 -0.0074186823 0.05198241 0.00952886 0.033926636 -0.009934165
0.054239333 0.010399796 -0.03284674 0.017934583 -0.032417316 -0.008251287 -0.028577197 0.046674617
-0.05553989 0.3279672 -0.18466936 0.11458079 0.0066407695 -0.069492854 0.045271464 -0.07042466
0.054319657 0.011709213 -0.022846129 0.032822482 0.010965623 0.05684811 0.0076917037 -0.02218958
0.018904515 -0.019080117 0.029611431 0.06281875 0.040672123 -0.03075935 0.0406162 0.012589209
0.035731144 -0.042884625 -0.06964971 -0.02718423 -0.053967535 0.05773291 0.02026581 0.02914396
0.02225206 -0.0012239739 0.055064127 -0.04999156 0.004430115 -0.048023358 0.02169557 -0.024230652
0.021559373 -0.014658853 0.05835581 -0.04170236 -0.041962415 -0.04196495 0.063284576 0.023447469
0.067703724 -0.058066234 -0.06978816 -0.05504692 -0.047330238 0.028498523 0.02519413 0.058463633
-0.03633556 -0.047965072 0.037331343 -0.028439727 0.04270301 -0.016696412 0.040249012 -0.054667275
-0.03550703 0.021451034 0.014874585 -0.017938834 0.041939296 0.047831208 -0.051023018 -0.037562832
0.06442575 -0.023741666 -0.024943683 -0.06807972 0.16253029 0.08810604 0.06377996 -0.051073156
0.0016504079 -0.07136195 -0.08277077 -0.038744487 -0.061579704 -0.044800732 0.046900257 0.013289198
0.021682039 -0.06562343 -0.04621044 -0.023419652 0.011002235 -0.061911047 -0.030316118 -0.04212217
0.0001949817 -0.02618109 -0.00487563 -0.04767786 -0.048294593 0.09720697 0.11417045 0.08271974
0.05899453 -0.013963882 0.04988257 0.011266529 -0.059580427 0.04869142 -0.01935912 -0.03762443
-0.06905869 -0.0699489 0.020130672 -0.015369657 0.027392678 -0.057741676 0.05223713 -0.05164784
-0.012149252 0.014696017 0.036323346 0.056802154 0.06409487 -0.055789806 0.052262634 0.004291844
0.02684506 -0.05266358 0.06408779 -0.062299166 0.026945274 0.024727203 0.02286382 -0.038039733
0.053295486 0.004803405 0.0090510845 -0.062004868 0.02953621 -0.010555413 -0.03223351 0.060435265
0.015686624 -0.038928393 -0.03561181 -0.0033600777 0.03928616 -0.017979294 -0.04014551 0.03313879
-0.05178205 0.075205505 0.022567397 -0.066239506 0.029414212 0.017258475 -0.010323287 -0.025056843
0.036723718 0.049646504 0.005721535 -0.012363713 -0.01863135 0.00752715 -0.012429338 -0.020967279
0.04497444 0.06046714 -0.0069654286 -0.015753329 0.0010267124 -0.0042010546 0.016915277 0.019717164
0.04910721 0.07767736 0.09929445 0.05702083 0.15774341 -0.08134259 -0.043046452 -0.06805872
-0.02490594 0.0219971 0.044862904 0.03248491 -0.06707137 -0.044225447 -0.011103939 0.06806247
0.010178067 -0.018221118 0.029108904 -0.026798733 -0.04554075 0.051354684 -0.031992704 -0.014104791
-0.06999418 0.04708972 0.053306982 -0.5568737 0.38783622 0.041603997 -0.05714471 0.052467287
0.031372335 0.056515764 0.036859356 0.017807499 -0.00068900734 -0.056201316 -0.06028228 -0.0658109
0.028802603 -0.034544386 -0.014160082 -0.040492408 -0.012821205 -0.049521647 -0.045974165 0.023339093
-0.020910665 0.04343611 -0.022572026 -0.051613607 -0.012414198 -0.03410671 -0.021525975 -0.06698217
00000000: b843 1c3d 9726 3c3d 9799 203c fd19 063d
00000010: b493 7cbc dc67 df3c b67e 5abd 8975 953c
00000020: 140e 7e3d 496d 53bd 5c33 973d 6b18 f3bb
00000030: 82eb 543d f01e 1c3c a8f6 0a3d e8c2 22bc
00000040: 102a 5e3d e863 2a3c 4e8a 06bd 8ceb 923c
00000050: 05c8 04bd 6830 07bc ba1a eabc e22d 3f3d
00000060: cc7d 63bd 51eb a73e f719 3dbe 55a9 ea3d
00000070: d09a d93b 4552 8ebd 926e 393d ce3a 90bd
00000080: 4a7e 5e3d 00d8 3f3c ce27 bbbc de70 063d
00000090: 28a9 333c 90d9 683d b00a fc3b ecc6 b5bc
000000a0: a4dd 9a3c e84d 9cbc ac93 f23c 1ea7 803d
000000b0: d097 263d 08fb fbbc 2c5d 263d f842 4e3c
000000c0: d25a 123d caa7 2fbd 82a4 8ebd 76b1 debc
000000d0: 100d 5dbd 5879 6c3d 7c04 a63c 50bf ee3c
000000e0: f449 b63c c06d a0ba ec8a 613d f3c3 4cbd
000000f0: 802a 913b 24b4 44bd e8ba b13c 5c7f c6bc
00000100: 489d b03c b02b 70bc 8006 6f3d 18d0 2abd
00000110: c8e0 2bbd 70e3 2bbd 589b 813d e814 c03c
00000120: 40a8 8a3d dcd6 6dbd 18ed 8ebd e178 61bd
00000130: 5add 41bd bc75 e93c ec63 ce3c 9077 6f3d
00000140: 99d4 14bd 0677 44bd c0e8 183d 6efa e8bc
00000150: 5ae9 2e3d eac6 88bc 26dc 243d cbea 5fbd
00000160: d26f 11bd 14ba af3c 88b4 733c 76f4 92bc
00000170: 8ac8 2b3d a8ea 433d 83fd 50bd 7cdb 19bd
00000180: a6f1 833d e27d c2bc b256 ccbc 616d 8bbd
00000190: 576e 263e f170 b43d 119f 823d 1632 51bd
000001a0: 8052 d83a 3726 92bd b983 a9bd 8ab2 1ebd
000001b0: 003b 7cbd f980 37bd 7c1a 403d f0ba 593c
000001c0: 889e b13c 9465 86bd 2947 3dbd 92da bfbc
000001d0: b842 343c 7096 7dbd 8259 f8bc 4c88 2cbd
000001e0: 0074 4c39 ba79 d6bc c0c3 9fbb dc49 43bd
000001f0: 8dd0 45bd 7314 c73d 32d2 e93d f868 a93d
00000200: 40a4 713d c4c8 64bc aa51 4c3d 3f97 383c
00000210: 9b0a 74bd a870 473d 0497 9ebc 131c 1abd
00000220: a46e 8dbd 5e41 8fbd 14e9 a43c 04d1 7bbc
00000230: 9c66 e03c 8982 6cbd 9af6 553d af8c 53bd
00000240: a80d 47bc 90c7 703c cac7 143d 60a9 683d
00000250: 2c44 833d da83 64bd 5811 563d 99a2 8c3b
00000260: 2cea db3c c4b5 57bd 7640 833d 692d 7fbd
00000270: 56bc dc3c b490 ca3c e84c bb3c 8dcf 1bbd
00000280: 5e4c 5a3d e265 9d3b 004b 143c d1f8 7dbd
00000290: ecf5 f13c 9cf0 2cbc 4907 04bd f88a 773d
000002a0: 3c81 803c 6173 1fbd b0dd 11bd c034 5cbb
000002b0: 86ea 203d 5049 93bc 9e6f 24bd 8abc 073d
000002c0: 6a19 54bd 5805 9a3d 43df b83c 94a8 87bd
000002d0: 13f6 f03c a561 8d3c 0123 29bc 0244 cdbc
000002e0: 9c6b 163d 225a 4b3d b77b bb3b 2c91 4abc
000002f0: c6a0 98bc 50a6 f63b 6ca4 4bbc 92c3 abbc
00000300: 1e37 383d 64ac 773d 403e e4bb 200d 81bc
00000310: c092 863a 00a9 89bb e891 8a3c e485 a13c
00000320: a424 493d 4f15 9f3d e35a cb3d ad8e 693d
00000330: 7d87 213e f296 a6bd 7a51 30bd 5f62 8bbd
00000340: 8b07 ccbc 4333 b43c 2ac2 373d e60e 053d
00000350: b75c 89bd be25 35bd 4ced 35bc 5664 8b3d
00000360: e8c1 263c 7444 95bc cc75 ee3c 0489 dbbc
00000370: f088 3abd 4a59 523d c80a 03bd c817 67bc
00000380: 1c59 8fbd 26e1 403d 6c58 5a3d 468f 0ebf
00000390: 7892 c63e f468 2a3d 9210 6abd f0e7 563d
000003a0: 4780 003d 137d 673d d6f9 163d 08e1 913c
000003b0: 809e 34ba 5a33 66bd 8dea 76bd ddc7 86bd
000003c0: 70f3 eb3c 6a7e 0dbd b0ff 67bc 5edb 25bd
000003d0: 0810 52bc 36d7 4abd 684f 3cbd a031 bf3c
000003e0: d84c abbc 10ea 313d f8e8 b8bc ca68 53bd
000003f0: ec64 4bbc 7ab3 0bbd 3e57 b0bc f32d 89bd

0.bias f4 [256]
0.19764803 0.13383579 0.11224785 0.17550296 -0.05286715 -0.0723399 0.21606557 0.14360403
0.13287334 -0.042481765 -0.2713197 0.18872292 -0.042047568 0.15407546 0.19661915 0.22812839
0.0022354627 0.1783487 -0.06972815 -0.3901853 0.00855536 -0.06148193 -0.23512988 0.22771831
-0.13079199 -0.26564363 0.007869689 0.24161689 -0.009260931 0.2000817 0.24100567 0.18730378
0.10313975 -0.057578128 -0.1177125 -0.031223204 0.0458928 0.10207995 -0.19954193 0.167154
0.09785229 0.052962642 -0.2217772 0.16228116 0.19815922 0.15535976 0.05663634 0.1282107
0.04387211 0.29031283 0.31310406 -0.029342026 0.032576136 0.034719165 0.12104784 -0.04330179
-0.00028936125 0.22597896 0.30094415 0.17025433 0.33566093 0.1783148 -0.18765146 0.23844732
0.050438546 0.19228354 0.023028865 0.11817592 0.050580833 0.21607624 -0.24803208 -0.082797326
0.09248086 -0.12616919 -0.034782823 0.21241795 -0.27175382 -0.05386072 0.15831225 0.16777894
-0.04448369 0.1301875 -0.04999217 0.14531313 -0.21085541 0.14096293 0.12839882 0.15327907
0.21134156 0.026396578 -0.008694477 0.02142548 -0.39978287 0.187993 0.17370223 -0.30047747
-0.02483278 -0.050393097 0.018469885 0.06079234 0.10197163 -0.030121714 -0.2830669 0.06388142
0.18749268 -0.17209853 0.22364515 0.14628571 -0.004552443 -0.13930404 -0.23194647 0.033517975
0.30178896 0.053405564 0.06821811 -0.06902256 0.2530196 0.107805714 0.034359965 0.21102959
0.109706074 -0.045702502 0.21079531 -0.016980555 0.19038507 0.085286364 0.16125476 0.103531286
0.249016 0.16450827 0.19686703 0.14139073 0.16741154 0.17431943 0.18744521 0.056206092
-0.22632504 -0.04653018 0.08775781 0.3006165 0.11742255 0.20772305 -0.18307929 0.12829936
-0.3030435 0.038193297 0.042041317 -0.056099344 0.18537627 0.22135161 -0.04311181 0.08445578
0.18189979 0.016339485 0.10829602 -0.022614956 -0.15643303 0.0035669866 -0.05203147 0.3133624
0.3379217 -0.053892702 0.12893865 0.209448 -0.3933555 -0.0871032 0.04708074 0.12282955
-0.17383172 0.25958857 0.14073603 -0.115771644 -0.0005590513 0.18646653 -0.114992455 0.006399954
0.116691254 0.0034724728 -0.05220754 0.16952641 -0.014309706 -0.020724611 0.042635664 0.19122355
0.24377221 -0.2790492 0.15790933 0.06533617 0.018009042 -0.013486639 0.18362883 -0.19399506
0.10715536 -0.049649574 0.07377475 0.17686059 0.08751313 0.020489544 0.17779414 -0.009523992
0.19598025 0.1021695 0.016064875 0.0350052 0.094025105 0.17391463 0.22527914 0.07899877
-0.19290797 0.009019097 -0.005068798 -0.43369433 0.08229517 0.036946714 -0.03471112 0.21668656
0.29548246 0.045459606 -0.12474178 -0.18451641 0.25089905 0.029242918 0.22359999 0.20958911
0.3319446 -0.053256318 0.169909 0.16255808 0.05520413 0.1925489 -0.25071564 0.2241743
0.147181 0.08958103 0.10623382 -0.20774348 0.069200866 0.21578678 0.2553361 0.21275416
0.26462457 0.09049266 0.08646827 -0.025928026 -0.03909277 0.14406992 0.23525582 -0.28564355
0.05807695 0.2664989 0.2108073 -0.076879725 0.14145881 0.24258065 0.18804133 -0.1512613
00000000: 3f64 4a3e 400c 093e 33e2 e53d 0cb7 333e
00000010: 3a8b 58bd f126 94bd 4b40 5d3e ef0c 133e
00000020: f30f 083e 5c01 2ebd 6aea 8abe 9540 413e
00000030: 123a 2cbd f5c5 1d3e 8856 493e 7d9a 693e
00000040: d780 123b 0ba1 363e a2cd 8ebd 5ec6 c7be
00000050: c82b 0c3c 7ad4 7bbd e3c5 70be fd2e 693e
00000060: 56ee 05be 7102 88be deef 003c 6b6a 773e
00000070: 29bb 17bc 38e2 4c3e 31ca 763e 90cc 3f3e
00000080: ef3a d33d 0bd7 6bbd 4013 f1bd cec7 ffbc
00000090: 17fa 3b3d 4b0f d13d b854 4cbe 6b2a 2b3e
000000a0: c866 c83d 5bef 583d 9019 63be 082d 263e
000000b0: 40ea 4a3e a116 1f3e 82fb 673d aa49 033e
000000c0: 3eb3 333d e2a3 943e 2d4f a03e b05e f0bc
000000d0: 8e6e 053d af35 0e3d eee7 f73d 385d 31bd
000000e0: 69b5 97b9 0767 673e 5a15 9a3e 2757 2e3e
000000f0: c0db ab3e 2898 363e b427 40be 892b 743e
00000100: a698 4e3d fae5 443e 08a7 bc3c 3706 f23d
00000110: d92d 4f3d 1743 5d3e 1ffc 7dbe a591 a9bd
00000120: 9b66 bd3d 7f32 01be 6f78 0ebd 1784 593e
00000130: 5123 8bbe 0f9d 5cbd 9b1c 223e 3ece 2b3e
00000140: 8834 36bd df4f 053e 97c4 4cbd f7cc 143e
00000150: 7bea 57be 9658 103e fb7a 033e 30f5 1c3e
00000160: ec69 583e a33d d83c 4873 0ebc 7d84 af3c
00000170: 57b0 ccbe 3d81 403e ffde 313e 2fd8 99be
00000180: 1d6e cbbc fe68 4ebd 284e 973c 6401 793d
00000190: 80d6 d03d d0c1 f6bc 25ee 90be 43d4 823d
000001a0: 15fe 3f3e 993a 30be 3c03 653e eccb 153e
000001b0: a92c 95bb b8a5 0ebe 6083 6dbe 254a 093d
000001c0: 1584 9a3e cbbf 5a3d f0b5 8b3d b35b 8dbd
000001d0: c98b 813e 3ec9 dc3d 09bd 0c3d 2418 583e
000001e0: 94ad e03d 8c32 3bbd bada 573e ce1a 8bbc
000001f0: 4ef4 423e 9eaa ae3d f81f 253e 3608 d43d
00000200: 0dfe 7e3e db74 283e 8397 493e bbc8 103e
00000210: ee6d 2b3e cb80 323e a3f1 3f3e 5c38 663d
00000220: c0c1 67be 6e96 3ebd 5eba b33d 68ea 993e
00000230: 3c7b f03d 5ab5 543e 2379 3bbe e860 033e
00000240: 8528 9bbe 9370 1c3d 8433 2c3d 6dc8 65bd
00000250: 47d3 3d3e ffa9 623e 0296 30bd 27f7 ac3d
00000260: f043 3a3e 62da 853c 4eca dd3d 0043 b9bc
00000270: fb2f 20be 1bc4 693b f31e 55bd 0971 a03e
00000280: 1304 ad3e 98be 5cbd 7e08 043e 8979 563e
00000290: e465 c9be 2a63 b2bd bcd7 403d 0f8e fb3d
000002a0: f100 32be cbe8 843e 1b1d 103e af19 edbd
000002b0: 4c8d 12ba 15f1 3e3e 2a81 ebbd b5b6 d13b
000002c0: d3fb ee3d 6d92 633b 93d7 55bd 5598 2d3e
000002d0: 4273 6abc a9c6 a9bc bca2 2e3d 1bd0 433e
000002e0: 6c9f 793e 89df 8ebe fcb2 213e f8ce 853d
000002f0: b387 933c 10f7 5cbc 3209 3c3e a4a6 46be
00000300: 4574 db3d 5a5d 4bbd 3717 973d f11a 353e
00000310: 153a b33d b0d9 a73c ab0f 363e 850a 1cbc
00000320: 0caf 483e 3e3e d13d 7c9a 833c 9d61 0f3d
00000330: 3c90 c03d ad16 323e 93af 663e 1bca a13d
00000340: ab89 45be d6c4 133c 2918 a6bb 2f0d debe
00000350: 5f8a a83d 7055 173d 3f2d 0ebd 15e3 5d3e
00000360: 7a49 973e da33 3a3d 9e78 ffbd dff1 3cbe
00000370: d775 803e d88e ef3c 65f7 643e 879e 563e
00000380: a5f4 a93e 4c23 5abd a0fc 2d3e a075 263e
00000390: ba1d 623d 8a2b 453e cd5d 80be f38d 653e
000003a0: 9eb6 163e 4276 b73d 1e91 d93d b5ba 54be
000003b0: 2fb9 8d3d 36f7 5c3e 6abb 823e 3adc 593e
000003c0: df7c 873e 3754 b93d 4716 b13d 0367 d4bc
000003d0: be1f 20bd 1187 133e e7e6 703e df3f 92be
000003e0: 19e2 6d3d 8b72 883e dedd 573e 1e73 9dbd
000003f0: 94da 103e 1067 783e e88d 403e 3ee4 1abe

2.weight f4 [256, 256]
0.0071937284 -0.0018994589 -0.029442046 -0.00891889 0.04257843 0.038392514 0.034415327 -0.024856973
-0.06592382 -0.019861028 -0.05664748 -0.012914622 0.0545512 0.007881621 0.061703276 -0.015052331
-0.023047237 -0.046453673 0.06078466 -0.054352526 -0.038157165 -0.034806564 0.021458654 0.29489762
0.031563595 0.003321331 0.055845123 0.03077553 -0.041939914 0.19722314 0.04847633 -0.040095583
-0.02486802 -0.0018475644 -0.062161237 0.038672652 0.029264579 0.08971984 -0.034987688 0.049524073
-0.037740394 -0.042392716 -0.05547168 0.04666301 0.03437529 -0.15399097 -0.045753017 0.010097647
-0.057659443 0.33310643 -0.053079512 0.022597626 0.0016850815 0.04823332 0.0891353 -0.014375515
-0.048756722 -0.028942512 0.051801022 0.06030402 0.32103053 -0.05764874 0.03271887 0.6704189
-0.04056771 0.04097821 -0.02420294 -0.028331019 -0.045416515 0.19203088 -0.030294025 -0.019531332
0.09188981 0.04807197 0.0042511243 0.0060820156 0.04742178 -0.0017985343 0.037001483 -0.055895805
-0.049819753 0.0038133254 0.050806202 -0.021591011 -0.010455885 0.053992312 -0.08900898 0.050664324
0.19426599 0.05047752 -0.061703615 -0.05312789 0.022178026 0.4395268 -0.025334306 -0.025917195
0.05174589 0.0395051 -0.07151522 0.046037693 0.0059735305 -0.047288023 -0.006110147 -0.0019291303
0.14841582 -0.053502567 0.29382488 -0.024000328 -0.025261045 0.017302988 0.0035854215 0.02212095
-0.021850348 -0.11792056 0.014625599 0.025297187 0.17089881 -0.02968844 0.015022333 0.14637099
0.040389854 0.0013280457 0.055198558 0.043137193 0.23649079 0.034608465 0.00044266545 0.074309856
0.382636 0.009914082 0.052052617 0.09424182 -0.056463566 -0.035803672 0.12891468 -0.02299349
0.011308112 -0.023507794 0.01340175 0.45920715 0.23249468 0.4243321 -0.033775527 0.17141704
-0.054513555 0.023216432 -0.05641007 0.028948678 0.011861844 -0.0051241545 0.011673018 0.017269181
0.050736893 -0.040097233 -0.04219376 -0.021064585 -0.06253519 -0.01125833 -0.044878922 -0.007944659
-0.0001055377 0.049095206 -0.030193087 -0.06418559 0.011108348 0.013296573 -0.052629765 0.0025939997
0.056436222 0.13643023 -0.047888447 0.0056329328 0.029514981 0.0456628 -0.035215918 -0.058420796
0.016938105 -0.016366923 -0.009217878 -0.059576713 -0.032792047 -0.027330132 -0.04567516 0.31533974
0.21587984 0.03436693 0.033273634 0.015302567 0.04763848 -0.053301938 0.031386796 -0.015673896
0.05478807 0.052210882 -0.0049369778 0.2055576 -0.0523409 0.053697146 -0.016918838 -0.14738
0.047828246 -0.0058051324 -0.018882351 -0.010581575 0.05869416 0.04530278 0.033703808 0.026350498
-0.018138673 0.024851795 -0.090789735 0.046242725 -0.045919135 -0.0366608 0.017704645 0.060207065
0.6209034 -0.02250147 0.048309516 -0.02437036 -0.050622 0.023384599 -0.024444336 0.5112576
-0.010391409 -0.040967528 0.05313349 0.029976992 -0.06161347 0.0068368004 0.035860527 0.19870806
0.013781734 -0.012868088 -0.042562827 0.03912618 -0.00969358 0.34605917 0.015713744 0.020417979
-0.03228696 0.004216604 -0.05076622 0.040565375 -0.020493021 0.092494704 0.041777276 0.032198966
0.0446019 0.042140037 -0.037904818 -0.050024617 0.009584574 0.8002652 0.17827718 0.05615927
00000000: 5eb9 eb3b 44f7 f8ba 7230 f1bc 8920 12bc
00000010: b866 2e3d 7841 1d3d 16f7 0c3d daa0 cbbc
00000020: 1103 87bd 98b3 a2bc 3007 68bd da97 53bc
00000030: 1471 5f3d ea21 013c 93bc 7c3d 0d9e 76bc
00000040: 8fcd bcbc 3546 3ebd 56f9 783d c1a0 5ebd
00000050: b04a 1cbd 5491 0ebd 0fca af3c d2fc 963e
00000060: d448 013d b0aa 593b dbbd 643d f71c fc3c
00000070: 30c9 2bbd ddf4 493e 1e8f 463d 443b 24bd
00000080: 05b8 cbbc f929 f2ba c89c 7ebd 3767 1e3d
00000090: 45bc ef3c 09bf b73d 404f 0fbd c1d9 4a3d
000000a0: ac95 1abd fca3 2dbd 4636 63bd b621 3f3d
000000b0: 1bcd 0c3d cfaf 1dbe 8467 3bbd 9a70 253c
000000c0: 4f2c 6cbd ed8c aa3e e769 59bd a81e b93c
000000d0: f4dd dc3a 4d90 453d 918c b63d 4887 6bbc
000000e0: 21b5 47bd d918 edbc 4f2d 543d 5901 773d
000000f0: 1d5e a43e 1621 6cbd 3904 063d 93a0 2b3f
00000100: 542a 26bd c4d8 273d 3e45 c6bc 7416 e8bc
00000110: ab06 3abd bea3 443e 2d2b f8bc 2c00 a0bc
00000120: ba30 bc3d 1de7 443d 044d 8b3b a54b c73b
00000130: 573d 423d ccbc ebba de8e 173d 00f3 64bd
00000140: cc0f 4cbd fce8 793b 2a1a 503d a2df b0bc
00000150: 294f 2bbc 0b27 5d3d 574a b6bd 6585 4f3d
00000160: aaed 463e 84c1 4e3d eebc 7cbd a19c 59bd
00000170: b1ae b53c a809 e13e e489 cfbc 4c50 d4bc
00000180: 80f3 533d 1ad0 213d 9276 92bd 0592 3c3d
00000190: 9bbd c33b 16b1 41bd a137 c8bb dfda fcba
000001a0: 51fa 173e 8225 5bbd 3770 963e 569c c4bc
000001b0: 40f0 cebc ffbe 8d3c 64f9 6a3b ff36 b53c
000001c0: 80ff b2bc 5680 f1bd 35a0 6f3c 0c3c cf3c
000001d0: 1900 2f3e 2c35 f3bc 3b20 763c 47e2 153e
000001e0: d56f 253d d211 ae3a e217 623d a0b0 303d
000001f0: a42a 723e 9bc1 0d3d 8d15 e839 c42f 983d
00000200: dee8 c33e ac6e 223c 2035 553d db01 c13d
00000210: 5746 67bd dfa6 12bd 3602 043e d85c bcbc
00000220: a945 393c 6b93 c0bc 0393 5b3c 331d eb3e
00000230: 1613 6e3e 0f42 d93e 3558 0abd f387 2f3e
00000240: 9b49 5fbd 6330 be3c 3f0e 67bd c725 ed3c
00000250: 2e58 423c 86e8 a7bb 3040 3f3c 1978 8d3c
00000260: 7dd1 4f3d ff3c 24bd 5dd3 2cbd a38f acbc
00000270: 7312 80bd dc74 38bc f6d2 37bd 512a 02bc
00000280: 1f54 ddb8 0e18 493d 7e57 f7bc bc73 83bd
00000290: caff 353c dfd9 593c 4f92 57bd 1800 2a3b
000002a0: ab29 673d 5eb4 0b3e ad26 44bd 7794 b83b
000002b0: 67c9 f13c eb08 3b3d 913e 10bd a54a 6fbd
000002c0: c8c1 8a3c ed13 86bc 9506 17bc b606 74bd
000002d0: f450 06bd 71e3 dfbc e015 3bbd 3674 a13e
000002e0: 9b0f 5d3e 57c4 0c3d ef49 083d 9eb7 7a3c
000002f0: 9120 433d 2253 5abd 718f 003d 8b66 80bc
00000300: 7569 603d 14db 553d 5fc6 a1bb b17d 523e
00000310: 6963 56bd 8af1 5b3d 6099 8abc c8ea 16be
00000320: 8de7 433d fb38 bebb 29af 9abc 585e 2dbc
00000330: 4a69 703d 688f 393d 010d 0a3d 00dd d73c
00000340: 8e97 94bc fe95 cb3c f8ef b9bd 0369 3d3d
00000350: b415 3cbd a329 16bd 5509 913c af9b 763d
00000360: 86f3 1e3f 0155 b8bc 33e0 453d 59a4 c7bc
00000370: 0459 4fbd 0f91 bf3c 7d3f c8bc c7e1 023f
00000380: ba40 2abc 91cd 27bd 81a2 593d 4f92 f53c
00000390: 685e 7cbd 3d07 e03b 7de2 123d 207a 4b3e
000003a0: c8cc 613c acd4 52bc 5c56 2ebd c642 203d
000003b0: d2d1 1ebc ab2e b13e 1cba 803c 9b43 a73c
000003c0: 553f 04bd 702b 8a3b 3df0 4fbd e127 263d
000003d0: fbe0 a7bc dd6d bd3d a61e 2b3d 10e3 033d
000003e0: 7bb0 363d 089b 2c3d 1542 1bbd 9de6 4cbd
000003f0: 9e08 1d3c 2ede 4c3f 4b8e 363e 4307 663d

2.bias f4 [256]
0.39158517 -0.03876954 -0.0027912233 0.17824489 -0.03240313 -0.042637203 -0.0028991199 0.05495009
-0.008345584 0.20600162 0.0136294495 -4.6125126e-05 0.037259247 0.09914407 0.103143364 -0.321812
0.015539883 0.07467215 0.01124716 0.042643677 -0.042287376 0.047131956 0.012732669 0.0097886855
0.015963549 -0.026974492 0.10256747 -0.030975822 -0.058549304 0.024066892 0.036508843 0.11659936
0.22932595 0.08629102 -0.06928465 -0.028133739 0.031892806 -0.21532978 0.045056343 -0.04694181
0.030353686 0.06282426 -0.41895533 0.19987324 -0.24282047 0.07046075 -0.027045049 0.04893194
0.100248 -0.015497654 0.031465657 0.023888353 0.083422765 -0.24785891 0.09973479 0.023950847
-0.048441652 -0.0063130977 0.022852218 -0.3247418 -0.005208979 -0.052360736 0.025725778 -0.061822187
-0.006985854 -0.05047868 -0.0494092 -0.058494747 -0.0045035663 0.037364475 -0.035117712 0.0027834557
0.014788886 0.08701611 -0.055575836 0.066101104 0.11820553 -0.007868871 -0.020590506 0.21109565
0.21694905 -0.4262112 0.034094483 0.048712436 0.009588466 0.0508274 0.015447818 -0.053097297
0.04317965 0.025565563 0.036549628 0.081050426 -0.0015300199 0.030791821 -0.036739115 0.04115442
0.2724245 -0.03991007 0.033531044 0.025841415 -0.03420823 0.2360337 0.06919191 0.0484878
-0.044223588 -0.1818027 -0.054504327 0.16611822 0.09709472 0.117570765 0.013474081 -0.056728076
-0.0047011226 -0.07758506 0.10182539 -0.042048007 0.048677675 -0.007944946 -0.13935189 -0.025824096
-0.3180294 0.04271197 -0.41792092 -0.23281886 -0.021731256 0.07105912 0.02323345 -0.04800316
0.081607416 -0.010504879 -0.02468071 -0.14420232 0.15669191 0.17697157 0.15341087 -0.0395017
0.088456064 -0.039113607 -0.006031407 -0.07649376 0.079088084 -0.22551198 0.022986207 -0.046139996
-0.032067634 -0.0075568296 -0.004470907 -0.04518903 0.013625772 0.1554258 0.088048026 -0.03608495
0.0004365453 -0.0010647201 -0.056465495 -0.03330931 0.09548173 0.2472874 0.08146553 0.08665663
0.07639611 0.15778197 -0.10056354 0.08906542 -0.044281892 -0.025292559 -0.0131443525 -0.056698695
-0.10139668 0.0010156184 -0.005398257 0.0011658932 -0.0070453947 0.064370744 0.062940896 0.019664958
0.3131727 0.054596048 -0.042027347 0.047062855 0.10562684 -0.049649354 -0.022434577 0.24942076
-0.043563757 -0.030849777 0.036904242 0.26418182 -0.054765895 -0.17765464 -0.042062018 0.082405366
0.025615813 -0.063542776 -0.06306101 0.012751731 0.063799694 0.010420241 -0.0324598 0.10476071
0.015369455 0.050701417 -0.0013916611 0.13793276 0.10205279 -0.1059142 0.011315198 0.40019175
0.057707023 -0.060323343 0.060970332 -0.29742876 -0.05430874 0.0429532 0.3445071 0.097799495
0.009105124 0.10483867 -0.020551369 0.014114397 0.053931694 -0.03663869 -0.017695302 0.0673365
-0.023126608 0.0563265 0.022604737 0.100707695 0.05199546 0.03812152 0.090445526 -0.047459498
0.22380045 0.03111189 0.31935373 -0.0012949686 -0.055521287 0.30938077 0.07024923 0.116534285
0.1093459 -0.036431774 -0.044677734 -0.059312362 0.06272291 0.15088409 0.06684154 -0.03933974
0.03779492 -0.05491669 0.016551761 0.09166403 -0.0973556 -0.050225206 -0.008536542 0.20178607
00000000: da7d c83e cfcc 1ebd f5ec 36bb d485 363e
00000010: 25b9 04bd 59a4 2ebd 29ff 3dbb 5813 613d
00000020: ebbb 08bc 17f2 523e 0e4e 5f3c 7a76 41b8
00000030: 279d 183d 0c0c cb3d d43c d33d 8bc4 a4be
00000040: fe9a 7e3c b6ed 983d 0246 383c 23ab 2e3d
00000050: 8735 2dbd 700d 413d af9c 503c b960 203c
00000060: fdc5 823c 9cf9 dcbc e50e d23d 02c1 fdbc
00000070: 65d1 6fbd ee27 c53c 4c8a 153d a5cb ee3d
00000080: 6cd4 6a3e 59b9 b03d 1ce5 8dbd ba78 e6bc
00000090: 08a2 023d 697f 5cbe 008d 383d 0e46 40bd
000000a0: 4ba8 f83c 01aa 803d 5081 d6be 92ab 4c3e
000000b0: eea5 78be ba4d 903d 948d ddbc dc6c 483d
000000c0: d34e cd3d dfe9 7dbc 22e2 003d 82b1 c33c
000000d0: 8ed9 aa3d bace 7dbe c141 cc3d 9134 c43c
000000e0: c16a 46bd 1ade cebb 9334 bb3c 8f44 a6be
000000f0: 15b0 aabb 3678 56bd debe d23c 4339 7dbd
00000100: 97e9 e4bb bbc2 4ebd 4d61 4abd 3098 6fbd
00000110: a792 93bb 7e0b 193d 97d7 0fbd a36a 363b
00000120: 154d 723c 8135 b23d 7da3 63bd 0460 873d
00000130: be15 f23d 70ec 00bc 6cad a8bc 7529 583e
00000140: e427 5e3e 5b38 dabe a8a6 0b3d b186 473d
00000150: f118 1d3c 6430 503d d818 7d3c 8d7c 59bd
00000160: 25dd 303d df6e d13c 10b5 153d c4fd a53d
00000170: f38a c8ba 213f fc3c c17b 16bd 8991 283d
00000180: 397b 8b3e be78 23bd d957 093d 60b1 d33c
00000190: ee1d 0cbd d1b2 713e 7db4 8d3d 259b 463d
000001a0: cb23 35bd 7d2a 3abe ee3f 5fbd e51a 2a3e
000001b0: 99d9 c63d f1c8 f03d 64c2 5c3c b35b 68bd
000001c0: e00b 9abb eae4 9ebd d489 d03d 883a 2cbd
000001d0: 3e62 473d 852b 02bc 43b2 0ebe 0e8d d3bc
000001e0: c0d4 a2be bff2 2e3d bbf9 d5be 1168 6ebe
000001f0: bf05 b2bc 7287 913d 1354 be3c f69e 44bd
00000200: ca21 a73d a81c 2cbc 332f cabc c6a9 13be
00000210: d873 203e 0938 353e bd17 1d3e 89cc 21bd
00000220: 7428 b53d 9735 20bd 1ca3 c5bb c3a8 9cbd
00000230: eff8 a13d 9dec 66be 924d bc3c 4bfd 3cbd
00000240: 5a59 03bd 489f f7bb b080 92bb 2218 39bd
00000250: a13e 5f3c f127 1f3e 8652 b43d d0cd 13bd
00000260: 1ee0 e439 148e 8bba 5d48 67bd 586f 08bd
00000270: ed8b c33d e838 7d3e 66d7 a63d 0879 b13d
00000280: 9075 9c3d 9991 213e 42f4 cdbd ee67 b63d
00000290: ee60 35bd 5732 cfbc 695b 57bc e43c 68bd
000002a0: 10a9 cfbd 801e 853a dde3 b0bb e2d0 983a
000002b0: 0edd e6bb cfd4 833d 28e7 803d 6818 a13c
000002c0: 2c58 a03e 1ba0 5f3d de24 2cbd fbc4 403d
000002d0: e252 d83d 1f5d 4bbd b8c8 b7bc 2868 7f3e
000002e0: e96f 32bd acb8 fcbc e728 173d d742 873e
000002f0: 3452 60bd 19eb 35be 3949 2cbd 25c4 a83d
00000300: 41d8 d13c b722 82bd 2126 81bd a3ec 503c
00000310: 6aa9 823d a9b9 2a3c 91f4 04bd c88c d63d
00000320: 2bd0 7b3c 4aac 4f3d 6668 b6ba 3f3e 0d3e
00000330: 0e01 d13d 8be9 d8bd 6163 393c efe5 cc3e
00000340: 335e 6c3d 9c15 77bd 07bc 793d 9548 98be
00000350: d772 5ebd b2ef 2f3d 3c63 b03e 1a4b c83d
00000360: a82d 153c a8b5 d63d 585b a8bc 1240 673c
00000370: 7be7 5c3d 7312 16bd bdf5 90bc b8e7 893d
00000380: 0374 bdbc 9eb6 663d 922d b93c d63f ce3d
00000390: 31f9 543d 5025 1c3d 813b b93d e464 42bd
000003a0: f22b 653e 5dde fe3c 5582 a33e f0bb a9ba
000003b0: 4a6a 63bd 2867 9e3e d4de 8f3d 87a9 ee3d
000003c0: bef0 df3d 7c39 15bd 0000 37bd 85f1 72bd
000003d0: de74 803d 5c81 1a3e 38e4 883d b522 21bd
000003e0: d9ce 1a3d 53f0 60bd 8f97 873c 5aba bb3d
000003f0: 5f62 c7bd f2b8 4dbd dadc 0bbc 02a1 4e3e

4.weight f4 [26, 256]
-0.003831513 -0.008991063 0.0254815 0.048519555 0.062114105 0.0007125799 0.019604988 -0.01567155
-0.024732072 -0.030800577 -0.015346249 -0.053273022 -0.04951815 -0.05503646 0.04278118 -0.012430121
0.031747457 0.03590279 -0.01864282 -0.0021202792 -0.026757488 0.03199922 0.04956489 0.008388947
-0.029454162 -0.0085405335 0.04683761 0.02696966 -0.05240826 -0.07239235 -0.027000861 0.05450632
0.0046118987 -0.009262065 -0.016231822 0.06222453 0.04110522 -0.010457562 -0.042167507 -0.009873679
-0.036168497 0.026679527 0.03109803 -0.008580248 -0.0082775215 0.039195847 -0.06496056 -0.017604658
0.025174849 -0.008429401 -0.03997865 -0.049383026 0.049890794 0.021659274 -0.010358079 -0.012314019
-0.012826048 -0.05316868 0.04362717 -0.0012435901 -0.0075603668 0.01064893 0.0021705895 0.033531286
-0.018249504 -0.009722231 -0.00400425 0.043601282 0.029297289 0.008883101 -0.010271974 -0.0550835
0.018415399 0.02787634 -0.018177649 0.058617882 -0.02445441 -0.027891837 -0.018027643 0.015402741
0.035714682 -0.001239423 -0.036376685 -0.00846591 -0.05097824 0.049522 -0.014219642 0.0482968
0.06212231 0.043864883 -0.0150663145 0.047232237 -0.046124917 0.022536783 -0.029325793 0.024058187
0.015588402 -0.029739508 -0.0382138 0.002422072 -0.04564027 0.038780894 0.02906413 0.053830523
0.02097496 0.019222746 -0.007971786 0.0390758 0.044826947 -0.048018564 0.0010367931 -0.030509744
-0.05816099 -0.012974987 0.026713163 -0.05260184 0.025073316 -0.019727357 0.025428306 0.00851893
0.0025159318 0.011073643 -0.013329121 0.0059131603 0.0064507853 0.026132878 0.006908372 0.0038030029
0.056823205 0.06368384 -0.01500997 -0.006027252 0.017280176 0.0590417 0.032791056 -0.01570056
-0.012341321 -0.041473374 0.033773057 0.001015363 -0.030487115 0.00028375912 -0.030286644 -0.027123954
-0.05101225 -0.050517302 -0.020132609 -0.061003815 0.009776488 -0.00055624876 -0.04025337 0.022903284
-0.016864542 -0.018897366 -0.045588426 -0.028577186 -0.037450157 0.03143828 0.014636143 0.024357524
0.011912065 0.0345818 -0.018996432 -0.022562493 -0.03346428 0.0136266155 -0.020032257 0.018558824
-0.010049289 -0.0017703548 -0.030765284 -0.025121404 0.008547605 0.06908498 -0.018470576 0.005940767
0.028426867 0.003756351 0.01760355 0.04771867 0.04498322 0.054938532 0.008666262 0.008720329
-0.035862006 -0.05451738 0.04502528 0.030909799 -0.030959425 0.014965442 0.01977268 -0.03783092
-0.010168103 -0.01870165 0.011476703 0.02330313 0.045839302 0.03321081 0.030017827 0.026202116
0.03452039 0.067913175 -0.033780064 0.0039981636 -0.015535711 0.040281583 0.019715136 0.035300214
0.0062329047 0.025711572 0.020098021 0.009177661 0.0061475444 -0.05001604 -0.0144931115 0.029344073
0.042158857 0.019940075 -0.031549945 0.0037109444 0.033708055 -0.0041154316 -0.010601813 0.04590733
-0.04547774 0.030969938 -0.0294107 0.040782474 0.020184463 0.03901674 -0.1448549 0.015856098
-0.002790724 -0.03427011 0.0046633007 0.0042911055 0.031788208 0.007293284 -0.012029871 0.028958816
0.052564383 -0.03478548 0.056728557 -0.02948947 0.0037582577 0.018914232 0.01653871 0.040047992
0.049787164 -0.0110691255 -0.04019084 0.03300064 -0.0054547945 -0.045718536 -0.020015404 -0.01865691
00000000: 1f1a 7bbb 404f 13bc 94be d03c 71bc 463d
00000010: 5c6b 7e3d 6dcc 3a3a a49a a03c 9f61 80bc
00000020: ea9a cabc 7e51 fcbc d56e 7bbc d034 5abd
00000030: 8bd3 4abd e96d 61bd 523b 2f3d b5a7 4bbc
00000040: 9f09 023d ce0e 133d d4b8 98bc 62f4 0abb
00000050: 8532 dbbc 9d11 033d 8e04 4b3d cb71 093c
00000060: db49 f1bc 98ed 0bbc cbd8 3f3d 7aef dc3c
00000070: 0baa 56bd 7142 94bd e930 ddbc 0542 5f3d
00000080: 691f 973b ebbf 17bc 99f8 84bc 26df 7e3d
00000090: f25d 283d 3256 2bbc d6b7 2cbd 36c5 21bc
000000a0: 6b25 14bd 068f da3c 4cc1 fe3c 2b94 0cbc
000000b0: 719e 07bc d38b 203d 0b0a 85bd a537 90bc
000000c0: 7c3b ce3c 781b 0abc a7c0 23bd db45 4abd
000000d0: 4a5a 4c3d ca6e b13c efb4 29bc bdc0 49bc
000000e0: 5824 52bc 67c7 59bd 67b2 323d f6ff a2ba
000000f0: f4bc f7bb da78 2e3c 7340 0e3b 1a58 093d
00000100: fc7f 95bc fe49 1fbc 1536 83bb 4297 323d
00000110: de00 f03c 6d8a 113c c84b 28bc 3c9f 61bd
00000120: e4db 963c ec5c e43c 4be9 94bc 4e19 703d
00000130: 9d54 c8bc 6c7d e4bc b5ae 93bc c75b 7c3c
00000140: 8f49 123d 2374 a2ba b8ff 14bd 9ab4 0abc
00000150: 8fce 50bd 95d7 4a3d 80f9 68bc ded2 453d
00000160: f773 7e3d aaab 333d b4d8 76bc 9776 413d
00000170: 7bed 3cbd 0f9f b83c a53c f0bc ad15 c53c
00000180: 7f66 7f3c 45a0 f3bc 1386 1cbd a0bb 1e3b
00000190: 4bf1 3abd b7d8 1e3d e617 ee3c 657d 5c3d
000001a0: aed3 ab3c 0579 9d3c 189c 02bc f20d 203d
000001b0: 769c 373d 1daf 44bd 01e5 873a 92ef f9bc
000001c0: 383a 6ebd 0a95 54bc 90d5 da3c 0775 57bd
000001d0: 8e66 cd3c 449b a1bc 064f d03c fb92 0b3c
000001e0: 55e2 243b 3a6e 353c 6362 5abc 2fc3 c13b
000001f0: 1c61 d33b 9e14 d63c a05f e23b cd3b 793b
00000200: 73bf 683d ac6c 823d 61ec 75bc 4180 c5bb
00000210: 288f 8d3c b6d5 713d ea4f 063d 769e 80bc
00000220: 4133 4abc fcdf 29bd 9e55 0a3d ee15 853a
00000230: 1dc0 f9bc 81c5 9439 b21b f8bc 0e33 debc
00000240: 39f2 50bd 3beb 4ebd 24ed a4bc 23df 79bd
00000250: 902d 203c 39d1 11ba b8e0 24bd ab9f bb3c
00000260: 8227 8abc a6ce 9abc eeba 3abd b41a eabc
00000270: 5665 19bd 6dc5 003d 6fcc 6f3c 6e89 c73c
00000280: d22a 433c a5a5 0d3d 689e 9bbc fad4 b8bc
00000290: d711 09bd 2b42 5f3c b01a a4bc ad08 983c
000002a0: c6a5 24bc 400b e8ba 7a07 fcbc 67cb cdbc
000002b0: 410b 0c3c 6d7c 8d3d 9b4f 97bc c4aa c23b
000002c0: 76df e83c 1d2d 763b 5235 903c a774 433d
000002d0: 5340 383d 3a07 613d f0fc 0d3c b6df 0e3c
000002e0: 0ae4 12bd 9e4d 5fbd 6e6c 383d 8c36 fd3c
000002f0: 9f9e fdbc 9d31 753c 51fa a13c 98f4 1abd
00000300: 1d98 26bc 3434 99bc c808 3c3c 35e6 be3c
00000310: fec1 3b3d 0f08 083d f2e7 f53c d2a5 d63c
00000320: 4165 0d3d 1016 8b3d f75c 0abd 0703 833b
00000330: 7f89 7ebc 4dfe 243d a381 a13c f596 103d
00000340: 653d cc3b 13a1 d23c 9ba4 a43c e65d 163c
00000350: 5771 c93b 9fdd 4cbd 8474 6dbc fb62 f03c
00000360: c4ae 2c3d 5e59 a33c 843a 01bd 5133 733b
00000370: 7511 0a3d beda 86bb 3ab3 2dbc 5309 3c3d
00000380: de46 3abd abb4 fd3c b5ee f0bc 860b 273d
00000390: e359 a53c 04d0 1f3d d854 14be a6e4 813c
000003a0: 94e4 36bb d15e 0cbd 9ace 983b 679c 8c3b
000003b0: 5a34 023d 80fc ee3b f018 45bc 0a3b ed3c
000003c0: c04d 573d 387b 0ebd 345c 683d e793 f1bc
000003d0: 1a4d 763b 05f2 9a3c 307c 873c 5d09 243d
000003e0: a0ed 4b3d 475b 35bc 269f 24bd ae2b 073d
000003f0: 22be b2bb 5c43 3bbd 58f7 a3bc 60d6 98bc

4.bias f4 [26]
0.89769113 -0.11025247 -0.11453293 -0.13532853 -1.1452682 -1.1194887 -1.0864253 -1.1395845
-0.5411272 -1.0853127 -1.0549892 -1.1466831 -1.1537068 -1.1742933 -1.1504403 -1.0719392
-1.1373228 -1.0639529 -1.1204876 -1.1626909 -1.0798061 -0.879825 -0.9572591 -1.1361563
-1.0687945 -1.1572486
00000000: 16cf 653f 0ccc e1bd 3e90 eabd 9093 0abe
00000010: 2698 92bf 684b 8fbf fc0f 8bbf e8dd 91bf
00000020: 5087 0abf 87eb 8abf e309 87bf 83c6 92bf
00000030: aaac 93bf 3e4f 96bf a141 93bf 4e35 89bf
00000040: cb93 91bf 9c2f 88bf 236c 8fbf 0ed3 94bf
00000050: 1637 8abf 363c 61bf ef0e 75bf 926d 91bf
00000060: 42ce 88bf b920 94bf
